node {
  name: "global_step/Initializer/zeros"
  op: "Const"
  attr {
    key: "_class"
    value {
      list {
        s: "loc:@global_step"
      }
    }
  }
  attr {
    key: "_output_shapes"
    value {
      list {
        shape {
        }
      }
    }
  }
  attr {
    key: "dtype"
    value {
      type: DT_INT64
    }
  }
  attr {
    key: "value"
    value {
      tensor {
        dtype: DT_INT64
        tensor_shape {
        }
        int64_val: 0
      }
    }
  }
}
node {
  name: "global_step"
  op: "VariableV2"
  attr {
    key: "_class"
    value {
      list {
        s: "loc:@global_step"
      }
    }
  }
  attr {
    key: "_output_shapes"
    value {
      list {
        shape {
        }
      }
    }
  }
  attr {
    key: "container"
    value {
      s: ""
    }
  }
  attr {
    key: "dtype"
    value {
      type: DT_INT64
    }
  }
  attr {
    key: "shape"
    value {
      shape {
      }
    }
  }
  attr {
    key: "shared_name"
    value {
      s: ""
    }
  }
}
node {
  name: "global_step/Assign"
  op: "Assign"
  input: "global_step"
  input: "global_step/Initializer/zeros"
  attr {
    key: "T"
    value {
      type: DT_INT64
    }
  }
  attr {
    key: "_class"
    value {
      list {
        s: "loc:@global_step"
      }
    }
  }
  attr {
    key: "_output_shapes"
    value {
      list {
        shape {
        }
      }
    }
  }
  attr {
    key: "use_locking"
    value {
      b: true
    }
  }
  attr {
    key: "validate_shape"
    value {
      b: true
    }
  }
}
node {
  name: "global_step/read"
  op: "Identity"
  input: "global_step"
  attr {
    key: "T"
    value {
      type: DT_INT64
    }
  }
  attr {
    key: "_class"
    value {
      list {
        s: "loc:@global_step"
      }
    }
  }
  attr {
    key: "_output_shapes"
    value {
      list {
        shape {
        }
      }
    }
  }
}
node {
  name: "Const"
  op: "Const"
  attr {
    key: "_output_shapes"
    value {
      list {
        shape {
          dim {
            size: 387
          }
        }
      }
    }
  }
  attr {
    key: "dtype"
    value {
      type: DT_STRING
    }
  }
  attr {
    key: "value"
    value {
      tensor {
        dtype: DT_STRING
        tensor_shape {
          dim {
            size: 387
          }
        }
        string_val: "\346\227\240"
        string_val: "\346\227\240"
        string_val: "\346\227\240"
        string_val: "\346\227\240"
        string_val: "\346\234\211"
        string_val: "\346\227\240"
        string_val: "\346\227\240"
        string_val: "\346\227\240"
        string_val: "\346\234\211"
        string_val: "\346\227\240"
        string_val: "\346\234\211"
        string_val: "\346\227\240"
        string_val: "\346\234\211"
        string_val: "\346\227\240"
        string_val: "\346\234\211"
        string_val: "\346\227\240"
        string_val: "\346\227\240"
        string_val: "\346\234\211"
        string_val: "\346\227\240"
        string_val: "\346\234\211"
        string_val: "\346\227\240"
        string_val: "\346\234\211"
        string_val: "\346\234\211"
        string_val: "\346\227\240"
        string_val: "\346\234\211"
        string_val: "\346\227\240"
        string_val: "\346\227\240"
        string_val: "\346\234\211"
        string_val: "\346\227\240"
        string_val: "\346\227\240"
        string_val: "\346\234\211"
        string_val: "\346\227\240"
        string_val: "\346\227\240"
        string_val: "\346\234\211"
        string_val: "\346\227\240"
        string_val: "\346\234\211"
        string_val: "\346\234\211"
        string_val: "\346\227\240"
        string_val: "\346\234\211"
        string_val: "\346\227\240"
        string_val: "\346\227\240"
        string_val: "\346\232\202\346\227\240\346\225\260\346\215\256"
        string_val: "\346\232\202\346\227\240\346\225\260\346\215\256"
        string_val: "\346\227\240"
        string_val: "\346\227\240"
        string_val: "\346\227\240"
        string_val: "\346\227\240"
        string_val: "\346\227\240"
        string_val: "\346\234\211"
        string_val: "\346\227\240"
        string_val: "\346\227\240"
        string_val: "\346\227\240"
        string_val: "\346\227\240"
        string_val: "\346\227\240"
        string_val: "\346\227\240"
        string_val: "\346\234\211"
        string_val: "\346\234\211"
        string_val: "\346\227\240"
        string_val: "\346\234\211"
        string_val: "\346\234\211"
        string_val: "\346\227\240"
        string_val: "\346\227\240"
        string_val: "\346\227\240"
        string_val: "\346\227\240"
        string_val: "\346\232\202\346\227\240\346\225\260\346\215\256"
        string_val: "\346\234\211"
        string_val: "\346\227\240"
        string_val: "\346\234\211"
        string_val: "\346\227\240"
        string_val: "\346\234\211"
        string_val: "\346\227\240"
        string_val: "\346\227\240"
        string_val: "\346\234\211"
        string_val: "\346\227\240"
        string_val: "\346\227\240"
        string_val: "\346\227\240"
        string_val: "\346\234\211"
        string_val: "\346\234\211"
        string_val: "\346\227\240"
        string_val: "\346\234\211"
        string_val: "\346\227\240"
        string_val: "\346\227\240"
        string_val: "\346\234\211"
        string_val: "\346\234\211"
        string_val: "\346\234\211"
        string_val: "\346\234\211"
        string_val: "\346\227\240"
        string_val: "\346\234\211"
        string_val: "\346\234\211"
        string_val: "\346\234\211"
        string_val: "\346\227\240"
        string_val: "\346\234\211"
        string_val: "\346\227\240"
        string_val: "\346\234\211"
        string_val: "\346\234\211"
        string_val: "\346\227\240"
        string_val: "\346\227\240"
        string_val: "\346\232\202\346\227\240\346\225\260\346\215\256"
        string_val: "\346\227\240"
        string_val: "\346\234\211"
        string_val: "\346\227\240"
        string_val: "\346\234\211"
        string_val: "\346\234\211"
        string_val: "\346\234\211"
        string_val: "\346\234\211"
        string_val: "\346\234\211"
        string_val: "\346\227\240"
        string_val: "\346\227\240"
        string_val: "\346\234\211"
        string_val: "\346\227\240"
        string_val: "\346\227\240"
        string_val: "\346\227\240"
        string_val: "\346\227\240"
        string_val: "\346\234\211"
        string_val: "\346\227\240"
        string_val: "\346\227\240"
        string_val: "\346\227\240"
        string_val: "\346\227\240"
        string_val: "\346\232\202\346\227\240\346\225\260\346\215\256"
        string_val: "\346\227\240"
        string_val: "\346\227\240"
        string_val: "\346\227\240"
        string_val: "\346\227\240"
        string_val: "\346\227\240"
        string_val: "\346\227\240"
        string_val: "\346\227\240"
        string_val: "\346\227\240"
        string_val: "\346\227\240"
        string_val: "\346\227\240"
        string_val: "\346\227\240"
        string_val: "\346\227\240"
        string_val: "\346\227\240"
        string_val: "\346\227\240"
        string_val: "\346\234\211"
        string_val: "\346\234\211"
        string_val: "\346\227\240"
        string_val: "\346\234\211"
        string_val: "\346\227\240"
        string_val: "\346\227\240"
        string_val: "\346\227\240"
        string_val: "\346\227\240"
        string_val: "\346\227\240"
        string_val: "\346\227\240"
        string_val: "\346\227\240"
        string_val: "\346\227\240"
        string_val: "\346\227\240"
        string_val: "\346\227\240"
        string_val: "\346\227\240"
        string_val: "\346\227\240"
        string_val: "\346\234\211"
        string_val: "\346\234\211"
        string_val: "\346\227\240"
        string_val: "\346\234\211"
        string_val: "\346\227\240"
        string_val: "\346\227\240"
        string_val: "\346\234\211"
        string_val: "\346\227\240"
        string_val: "\346\234\211"
        string_val: "\346\234\211"
        string_val: "\346\234\211"
        string_val: "\346\227\240"
        string_val: "\346\234\211"
        string_val: "\346\234\211"
        string_val: "\346\227\240"
        string_val: "\346\234\211"
        string_val: "\346\227\240"
        string_val: "\346\227\240"
        string_val: "\346\234\211"
        string_val: "\346\234\211"
        string_val: "\346\227\240"
        string_val: "\346\227\240"
        string_val: "\346\227\240"
        string_val: "\346\227\240"
        string_val: "\346\234\211"
        string_val: "\346\227\240"
        string_val: "\346\234\211"
        string_val: "\346\227\240"
        string_val: "\346\227\240"
        string_val: "\346\234\211"
        string_val: "\346\227\240"
        string_val: "\346\227\240"
        string_val: "\346\234\211"
        string_val: "\346\234\211"
        string_val: "\346\227\240"
        string_val: "\346\234\211"
        string_val: "\346\234\211"
        string_val: "\346\227\240"
        string_val: "\346\227\240"
        string_val: "\346\227\240"
        string_val: "\346\234\211"
        string_val: "\346\234\211"
        string_val: "\346\227\240"
        string_val: "\346\234\211"
        string_val: "\346\227\240"
        string_val: "\346\227\240"
        string_val: "\346\227\240"
        string_val: "\346\234\211"
        string_val: "\346\234\211"
        string_val: "\346\234\211"
        string_val: "\346\227\240"
        string_val: "\346\234\211"
        string_val: "\346\227\240"
        string_val: "\346\227\240"
        string_val: "\346\234\211"
        string_val: "\346\227\240"
        string_val: "\346\234\211"
        string_val: "\346\234\211"
        string_val: "\346\234\211"
        string_val: "\346\227\240"
        string_val: "\346\234\211"
        string_val: "\346\234\211"
        string_val: "\346\227\240"
        string_val: "\346\227\240"
        string_val: "\346\227\240"
        string_val: "\346\234\211"
        string_val: "\346\234\211"
        string_val: "\346\227\240"
        string_val: "\346\234\211"
        string_val: "\346\234\211"
        string_val: "\346\234\211"
        string_val: "\346\227\240"
        string_val: "\346\234\211"
        string_val: "\346\234\211"
        string_val: "\346\227\240"
        string_val: "\346\227\240"
        string_val: "\346\227\240"
        string_val: "\346\227\240"
        string_val: "\346\234\211"
        string_val: "\346\234\211"
        string_val: "\346\227\240"
        string_val: "\346\227\240"
        string_val: "\346\227\240"
        string_val: "\346\227\240"
        string_val: "\346\234\211"
        string_val: "\346\227\240"
        string_val: "\346\227\240"
        string_val: "\346\234\211"
        string_val: "\346\234\211"
        string_val: "\346\234\211"
        string_val: "\346\234\211"
        string_val: "\346\227\240"
        string_val: "\346\234\211"
        string_val: "\346\234\211"
        string_val: "\346\234\211"
        string_val: "\346\234\211"
        string_val: "\346\227\240"
        string_val: "\346\227\240"
        string_val: "\346\234\211"
        string_val: "\346\234\211"
        string_val: "\346\234\211"
        string_val: "\346\227\240"
        string_val: "\346\227\240"
        string_val: "\346\227\240"
        string_val: "\346\234\211"
        string_val: "\346\227\240"
        string_val: "\346\227\240"
        string_val: "\346\234\211"
        string_val: "\346\227\240"
        string_val: "\346\234\211"
        string_val: "\346\227\240"
        string_val: "\346\234\211"
        string_val: "\346\234\211"
        string_val: "\346\234\211"
        string_val: "\346\227\240"
        string_val: "\346\227\240"
        string_val: "\346\227\240"
        string_val: "\346\227\240"
        string_val: "\346\234\211"
        string_val: "\346\227\240"
        string_val: "\346\234\211"
        string_val: "\346\227\240"
        string_val: "\346\227\240"
        string_val: "\346\227\240"
        string_val: "\346\227\240"
        string_val: "\346\227\240"
        string_val: "\346\227\240"
        string_val: "\346\227\240"
        string_val: "\346\227\240"
        string_val: "\346\227\240"
        string_val: "\346\227\240"
        string_val: "\346\234\211"
        string_val: "\346\227\240"
        string_val: "\346\227\240"
        string_val: "\346\227\240"
        string_val: "\346\227\240"
        string_val: "\346\227\240"
        string_val: "\346\234\211"
        string_val: "\346\227\240"
        string_val: "\346\227\240"
        string_val: "\346\227\240"
        string_val: "\346\234\211"
        string_val: "\346\234\211"
        string_val: "\346\227\240"
        string_val: "\346\227\240"
        string_val: "\346\227\240"
        string_val: "\346\234\211"
        string_val: "\346\234\211"
        string_val: "\346\227\240"
        string_val: "\346\227\240"
        string_val: "\346\234\211"
        string_val: "\346\234\211"
        string_val: "\346\234\211"
        string_val: "\346\234\211"
        string_val: "\346\227\240"
        string_val: "\346\227\240"
        string_val: "\346\234\211"
        string_val: "\346\234\211"
        string_val: "\346\227\240"
        string_val: "\346\234\211"
        string_val: "\346\227\240"
        string_val: "\346\234\211"
        string_val: "\346\227\240"
        string_val: "\346\234\211"
        string_val: "\346\234\211"
        string_val: "\346\227\240"
        string_val: "\346\234\211"
        string_val: "\346\227\240"
        string_val: "\346\234\211"
        string_val: "\346\227\240"
        string_val: "\346\227\240"
        string_val: "\346\234\211"
        string_val: "\346\234\211"
        string_val: "\346\234\211"
        string_val: "\346\234\211"
        string_val: "\346\234\211"
        string_val: "\346\234\211"
        string_val: "\346\227\240"
        string_val: "\346\227\240"
        string_val: "\346\234\211"
        string_val: "\346\227\240"
        string_val: "\346\227\240"
        string_val: "\346\232\202\346\227\240\346\225\260\346\215\256"
        string_val: "\346\234\211"
        string_val: "\346\234\211"
        string_val: "\346\227\240"
        string_val: "\346\227\240"
        string_val: "\346\227\240"
        string_val: "\346\227\240"
        string_val: "\346\227\240"
        string_val: "\346\227\240"
        string_val: "\346\227\240"
        string_val: "\346\234\211"
        string_val: "\346\227\240"
        string_val: "\346\234\211"
        string_val: "\346\227\240"
        string_val: "\346\227\240"
        string_val: "\346\234\211"
        string_val: "\346\227\240"
        string_val: "\346\234\211"
        string_val: "\346\234\211"
        string_val: "\346\234\211"
        string_val: "\346\227\240"
        string_val: "\346\227\240"
        string_val: "\346\234\211"
        string_val: "\346\234\211"
        string_val: "\346\227\240"
        string_val: "\346\234\211"
        string_val: "\346\227\240"
        string_val: "\346\227\240"
        string_val: "\346\234\211"
        string_val: "\346\234\211"
        string_val: "\346\234\211"
        string_val: "\346\227\240"
        string_val: "\346\234\211"
        string_val: "\346\227\240"
        string_val: "\346\227\240"
        string_val: "\346\234\211"
        string_val: "\346\234\211"
        string_val: "\346\227\240"
        string_val: "\346\227\240"
        string_val: "\346\234\211"
        string_val: "\346\234\211"
        string_val: "\346\227\240"
        string_val: "\346\227\240"
        string_val: "\346\227\240"
        string_val: "\346\227\240"
        string_val: "\346\227\240"
        string_val: "\346\234\211"
        string_val: "\346\227\240"
        string_val: "\346\227\240"
        string_val: "\346\234\211"
        string_val: "\346\227\240"
        string_val: "\346\232\202\346\227\240\346\225\260\346\215\256"
        string_val: "\346\234\211"
        string_val: "\346\227\240"
        string_val: "\346\234\211"
        string_val: "\346\227\240"
      }
    }
  }
}
node {
  name: "Const_1"
  op: "Const"
  attr {
    key: "_output_shapes"
    value {
      list {
        shape {
          dim {
            size: 387
          }
        }
      }
    }
  }
  attr {
    key: "dtype"
    value {
      type: DT_STRING
    }
  }
  attr {
    key: "value"
    value {
      tensor {
        dtype: DT_STRING
        tensor_shape {
          dim {
            size: 387
          }
        }
        string_val: "\346\235\277\346\245\274"
        string_val: "\346\235\277\346\245\274"
        string_val: "\346\235\277\346\245\274"
        string_val: "\346\235\277\346\245\274"
        string_val: "\346\235\277\346\245\274"
        string_val: "\346\235\277\346\245\274"
        string_val: "\346\235\277\346\245\274"
        string_val: "\346\235\277\346\245\274"
        string_val: "\346\235\277\346\245\274"
        string_val: "\346\235\277\346\245\274"
        string_val: "\346\235\277\346\245\274"
        string_val: "\346\235\277\346\245\274"
        string_val: "\345\241\224\346\245\274"
        string_val: "\346\235\277\346\245\274"
        string_val: "\346\235\277\346\245\274"
        string_val: "\346\235\277\346\245\274"
        string_val: "\346\235\277\346\245\274"
        string_val: "\346\235\277\346\245\274"
        string_val: "\346\235\277\346\245\274"
        string_val: "\346\235\277\346\245\274"
        string_val: "\346\235\277\346\245\274"
        string_val: "\346\235\277\346\245\274"
        string_val: "\346\235\277\346\245\274"
        string_val: "\346\235\277\346\245\274"
        string_val: "\346\235\277\346\245\274"
        string_val: "\346\235\277\346\245\274"
        string_val: "\346\235\277\346\245\274"
        string_val: "\346\235\277\346\245\274"
        string_val: "\346\235\277\346\245\274"
        string_val: "\346\235\277\346\245\274"
        string_val: "\346\235\277\346\245\274"
        string_val: "\346\235\277\346\245\274"
        string_val: "\346\235\277\346\245\274"
        string_val: "\346\235\277\346\245\274"
        string_val: "\346\235\277\346\245\274"
        string_val: "\345\241\224\346\245\274"
        string_val: "\345\241\224\346\245\274"
        string_val: "\346\235\277\346\245\274"
        string_val: "\346\235\277\346\245\274"
        string_val: "\346\235\277\346\245\274"
        string_val: "\346\235\277\346\245\274"
        string_val: "\346\235\277\346\245\274"
        string_val: "\346\235\277\345\241\224\347\273\223\345\220\210"
        string_val: "\346\235\277\346\245\274"
        string_val: "\346\235\277\346\245\274"
        string_val: "\346\235\277\346\245\274"
        string_val: "\346\235\277\346\245\274"
        string_val: "\346\235\277\346\245\274"
        string_val: "\346\235\277\346\245\274"
        string_val: "\346\235\277\346\245\274"
        string_val: "\346\235\277\346\245\274"
        string_val: "\346\235\277\346\245\274"
        string_val: "\346\235\277\346\245\274"
        string_val: "\346\235\277\346\245\274"
        string_val: "\346\235\277\346\245\274"
        string_val: "\346\235\277\346\245\274"
        string_val: "\346\235\277\346\245\274"
        string_val: "\346\235\277\346\245\274"
        string_val: "\346\235\277\346\245\274"
        string_val: "\346\235\277\345\241\224\347\273\223\345\220\210"
        string_val: "\346\235\277\346\245\274"
        string_val: "\346\235\277\346\245\274"
        string_val: "\346\235\277\346\245\274"
        string_val: "\346\235\277\346\245\274"
        string_val: "\346\235\277\346\245\274"
        string_val: "\346\235\277\346\245\274"
        string_val: "\346\235\277\346\245\274"
        string_val: "\346\235\277\346\245\274"
        string_val: "\346\235\277\346\245\274"
        string_val: "\346\235\277\346\245\274"
        string_val: "\346\235\277\346\245\274"
        string_val: "\346\235\277\346\245\274"
        string_val: "\346\235\277\346\245\274"
        string_val: "\346\235\277\346\245\274"
        string_val: "\346\235\277\346\245\274"
        string_val: "\346\235\277\346\245\274"
        string_val: "\346\235\277\346\245\274"
        string_val: "\346\235\277\346\245\274"
        string_val: "\346\235\277\346\245\274"
        string_val: "\346\235\277\346\245\274"
        string_val: "\346\235\277\346\245\274"
        string_val: "\346\235\277\346\245\274"
        string_val: "\346\235\277\346\245\274"
        string_val: "\346\235\277\346\245\274"
        string_val: "\346\235\277\346\245\274"
        string_val: "\346\235\277\346\245\274"
        string_val: "\346\235\277\346\245\274"
        string_val: "\346\235\277\346\245\274"
        string_val: "\345\241\224\346\245\274"
        string_val: "\346\235\277\346\245\274"
        string_val: "\346\235\277\346\245\274"
        string_val: "\346\235\277\346\245\274"
        string_val: "\346\235\277\346\245\274"
        string_val: "\345\241\224\346\245\274"
        string_val: "\346\235\277\346\245\274"
        string_val: "\346\235\277\346\245\274"
        string_val: "\346\235\277\346\245\274"
        string_val: "\346\235\277\346\245\274"
        string_val: "\346\235\277\346\245\274"
        string_val: "\346\235\277\346\245\274"
        string_val: "\346\235\277\346\245\274"
        string_val: "\346\235\277\346\245\274"
        string_val: "\345\241\224\346\245\274"
        string_val: "\346\235\277\346\245\274"
        string_val: "\345\241\224\346\245\274"
        string_val: "\346\235\277\346\245\274"
        string_val: "\346\235\277\346\245\274"
        string_val: "\346\235\277\346\245\274"
        string_val: "\346\235\277\346\245\274"
        string_val: "\346\235\277\346\245\274"
        string_val: "\346\235\277\346\245\274"
        string_val: "\346\235\277\346\245\274"
        string_val: "\346\235\277\346\245\274"
        string_val: "\346\235\277\346\245\274"
        string_val: "\346\235\277\346\245\274"
        string_val: "\346\235\277\346\245\274"
        string_val: "\346\235\277\346\245\274"
        string_val: "\346\235\277\346\245\274"
        string_val: "\346\235\277\346\245\274"
        string_val: "\346\235\277\346\245\274"
        string_val: "\346\235\277\346\245\274"
        string_val: "\346\235\277\346\245\274"
        string_val: "\346\235\277\346\245\274"
        string_val: "\346\235\277\346\245\274"
        string_val: "\346\235\277\346\245\274"
        string_val: "\346\235\277\346\245\274"
        string_val: "\346\235\277\346\245\274"
        string_val: "\346\235\277\346\245\274"
        string_val: "\346\235\277\346\245\274"
        string_val: "\346\235\277\346\245\274"
        string_val: "\346\235\277\346\245\274"
        string_val: "\346\235\277\346\245\274"
        string_val: "\346\235\277\346\245\274"
        string_val: "\346\235\277\346\245\274"
        string_val: "\346\235\277\345\241\224\347\273\223\345\220\210"
        string_val: "\346\235\277\346\245\274"
        string_val: "\346\235\277\346\245\274"
        string_val: "\346\235\277\346\245\274"
        string_val: "\346\235\277\346\245\274"
        string_val: "\346\235\277\346\245\274"
        string_val: "\346\235\277\346\245\274"
        string_val: "\346\235\277\346\245\274"
        string_val: "\346\235\277\346\245\274"
        string_val: "\346\235\277\346\245\274"
        string_val: "\346\235\277\346\245\274"
        string_val: "\346\235\277\346\245\274"
        string_val: "\346\235\277\346\245\274"
        string_val: "\346\235\277\346\245\274"
        string_val: "\346\235\277\346\245\274"
        string_val: "\346\235\277\346\245\274"
        string_val: "\346\235\277\346\245\274"
        string_val: "\346\235\277\346\245\274"
        string_val: "\346\235\277\346\245\274"
        string_val: "\346\235\277\346\245\274"
        string_val: "\346\235\277\346\245\274"
        string_val: "\346\235\277\346\245\274"
        string_val: "\346\235\277\346\245\274"
        string_val: "\346\235\277\346\245\274"
        string_val: "\345\241\224\346\245\274"
        string_val: "\345\241\224\346\245\274"
        string_val: "\346\235\277\346\245\274"
        string_val: "\345\241\224\346\245\274"
        string_val: "\346\235\277\346\245\274"
        string_val: "\346\235\277\346\245\274"
        string_val: "\346\235\277\346\245\274"
        string_val: "\346\235\277\346\245\274"
        string_val: "\346\235\277\346\245\274"
        string_val: "\345\241\224\346\245\274"
        string_val: "\346\235\277\346\245\274"
        string_val: "\346\235\277\346\245\274"
        string_val: "\346\235\277\346\245\274"
        string_val: "\346\235\277\346\245\274"
        string_val: "\346\235\277\346\245\274"
        string_val: "\345\241\224\346\245\274"
        string_val: "\346\235\277\346\245\274"
        string_val: "\345\241\224\346\245\274"
        string_val: "\346\235\277\346\245\274"
        string_val: "\346\235\277\346\245\274"
        string_val: "\346\235\277\346\245\274"
        string_val: "\346\235\277\346\245\274"
        string_val: "\346\235\277\346\245\274"
        string_val: "\346\235\277\346\245\274"
        string_val: "\346\235\277\346\245\274"
        string_val: "\346\235\277\346\245\274"
        string_val: "\346\235\277\346\245\274"
        string_val: "\346\235\277\346\245\274"
        string_val: "\346\235\277\346\245\274"
        string_val: "\346\235\277\346\245\274"
        string_val: "\346\235\277\346\245\274"
        string_val: "\345\241\224\346\245\274"
        string_val: "\346\235\277\346\245\274"
        string_val: "\346\235\277\346\245\274"
        string_val: "\345\241\224\346\245\274"
        string_val: "\346\235\277\346\245\274"
        string_val: "\346\235\277\346\245\274"
        string_val: "\346\235\277\346\245\274"
        string_val: "\346\235\277\346\245\274"
        string_val: "\345\241\224\346\245\274"
        string_val: "\346\235\277\346\245\274"
        string_val: "\346\235\277\346\245\274"
        string_val: "\345\241\224\346\245\274"
        string_val: "\346\235\277\346\245\274"
        string_val: "\346\235\277\346\245\274"
        string_val: "\346\235\277\346\245\274"
        string_val: "\346\235\277\346\245\274"
        string_val: "\346\235\277\346\245\274"
        string_val: "\346\235\277\346\245\274"
        string_val: "\346\235\277\346\245\274"
        string_val: "\346\235\277\346\245\274"
        string_val: "\346\235\277\346\245\274"
        string_val: "\346\235\277\346\245\274"
        string_val: "\346\235\277\346\245\274"
        string_val: "\346\235\277\346\245\274"
        string_val: "\346\235\277\346\245\274"
        string_val: "\346\235\277\346\245\274"
        string_val: "\346\235\277\346\245\274"
        string_val: "\346\235\277\346\245\274"
        string_val: "\346\235\277\346\245\274"
        string_val: "\346\235\277\346\245\274"
        string_val: "\345\241\224\346\245\274"
        string_val: "\346\235\277\346\245\274"
        string_val: "\345\241\224\346\245\274"
        string_val: "\346\235\277\346\245\274"
        string_val: "\346\235\277\346\245\274"
        string_val: "\346\235\277\346\245\274"
        string_val: "\346\235\277\346\245\274"
        string_val: "\346\235\277\346\245\274"
        string_val: "\346\235\277\346\245\274"
        string_val: "\345\241\224\346\245\274"
        string_val: "\346\235\277\346\245\274"
        string_val: "\346\235\277\346\245\274"
        string_val: "\346\235\277\346\245\274"
        string_val: "\346\235\277\346\245\274"
        string_val: "\346\235\277\346\245\274"
        string_val: "\346\235\277\346\245\274"
        string_val: "\346\235\277\346\245\274"
        string_val: "\346\235\277\346\245\274"
        string_val: "\346\235\277\346\245\274"
        string_val: "\346\235\277\346\245\274"
        string_val: "\346\235\277\346\245\274"
        string_val: "\346\235\277\346\245\274"
        string_val: "\346\235\277\346\245\274"
        string_val: "\346\235\277\346\245\274"
        string_val: "\346\235\277\346\245\274"
        string_val: "\346\235\277\346\245\274"
        string_val: "\346\235\277\346\245\274"
        string_val: "\346\235\277\346\245\274"
        string_val: "\346\235\277\346\245\274"
        string_val: "\346\235\277\346\245\274"
        string_val: "\346\235\277\346\245\274"
        string_val: "\346\235\277\346\245\274"
        string_val: "\346\235\277\346\245\274"
        string_val: "\346\235\277\346\245\274"
        string_val: "\346\235\277\346\245\274"
        string_val: "\346\235\277\346\245\274"
        string_val: "\346\235\277\346\245\274"
        string_val: "\346\235\277\346\245\274"
        string_val: "\346\235\277\346\245\274"
        string_val: "\345\241\224\346\245\274"
        string_val: "\346\235\277\346\245\274"
        string_val: "\346\235\277\346\245\274"
        string_val: "\346\235\277\346\245\274"
        string_val: "\346\235\277\346\245\274"
        string_val: "\346\235\277\346\245\274"
        string_val: "\346\235\277\346\245\274"
        string_val: "\346\235\277\346\245\274"
        string_val: "\346\235\277\346\245\274"
        string_val: "\346\235\277\346\245\274"
        string_val: "\346\235\277\346\245\274"
        string_val: "\346\235\277\346\245\274"
        string_val: "\346\235\277\346\245\274"
        string_val: "\346\235\277\346\245\274"
        string_val: "\346\235\277\346\245\274"
        string_val: "\346\235\277\346\245\274"
        string_val: "\346\235\277\346\245\274"
        string_val: "\346\235\277\346\245\274"
        string_val: "\346\235\277\346\245\274"
        string_val: "\346\235\277\346\245\274"
        string_val: "\346\235\277\346\245\274"
        string_val: "\346\235\277\346\245\274"
        string_val: "\346\235\277\346\245\274"
        string_val: "\346\235\277\346\245\274"
        string_val: "\346\235\277\346\245\274"
        string_val: "\346\235\277\346\245\274"
        string_val: "\346\235\277\346\245\274"
        string_val: "\346\235\277\346\245\274"
        string_val: "\346\235\277\346\245\274"
        string_val: "\346\235\277\346\245\274"
        string_val: "\346\235\277\346\245\274"
        string_val: "\346\235\277\346\245\274"
        string_val: "\346\235\277\346\245\274"
        string_val: "\345\241\224\346\245\274"
        string_val: "\346\235\277\346\245\274"
        string_val: "\346\235\277\346\245\274"
        string_val: "\346\235\277\346\245\274"
        string_val: "\346\235\277\346\245\274"
        string_val: "\346\235\277\346\245\274"
        string_val: "\346\235\277\346\245\274"
        string_val: "\346\235\277\346\245\274"
        string_val: "\345\241\224\346\245\274"
        string_val: "\346\235\277\346\245\274"
        string_val: "\346\235\277\346\245\274"
        string_val: "\346\235\277\346\245\274"
        string_val: "\346\235\277\346\245\274"
        string_val: "\346\235\277\346\245\274"
        string_val: "\346\235\277\346\245\274"
        string_val: "\346\235\277\346\245\274"
        string_val: "\346\235\277\346\245\274"
        string_val: "\346\235\277\346\245\274"
        string_val: "\346\235\277\346\245\274"
        string_val: "\346\235\277\346\245\274"
        string_val: "\346\235\277\346\245\274"
        string_val: "\345\241\224\346\245\274"
        string_val: "\345\241\224\346\245\274"
        string_val: "\346\235\277\346\245\274"
        string_val: "\346\235\277\346\245\274"
        string_val: "\346\235\277\346\245\274"
        string_val: "\345\241\224\346\245\274"
        string_val: "\346\235\277\346\245\274"
        string_val: "\346\235\277\346\245\274"
        string_val: "\346\235\277\346\245\274"
        string_val: "\346\235\277\346\245\274"
        string_val: "\346\235\277\346\245\274"
        string_val: "\346\235\277\346\245\274"
        string_val: "\346\235\277\346\245\274"
        string_val: "\346\235\277\346\245\274"
        string_val: "\346\235\277\346\245\274"
        string_val: "\346\235\277\346\245\274"
        string_val: "\346\235\277\346\245\274"
        string_val: "\346\235\277\346\245\274"
        string_val: "\346\235\277\346\245\274"
        string_val: "\346\232\202\346\227\240\346\225\260\346\215\256"
        string_val: "\346\235\277\346\245\274"
        string_val: "\346\235\277\346\245\274"
        string_val: "\346\235\277\346\245\274"
        string_val: "\346\235\277\346\245\274"
        string_val: "\346\235\277\346\245\274"
        string_val: "\346\235\277\346\245\274"
        string_val: "\346\235\277\346\245\274"
        string_val: "\346\235\277\346\245\274"
        string_val: "\346\235\277\346\245\274"
        string_val: "\346\235\277\346\245\274"
        string_val: "\346\235\277\346\245\274"
        string_val: "\346\235\277\346\245\274"
        string_val: "\346\235\277\346\245\274"
        string_val: "\346\235\277\346\245\274"
        string_val: "\346\235\277\346\245\274"
        string_val: "\346\235\277\346\245\274"
        string_val: "\346\235\277\346\245\274"
        string_val: "\346\235\277\345\241\224\347\273\223\345\220\210"
        string_val: "\346\235\277\346\245\274"
        string_val: "\346\235\277\346\245\274"
        string_val: "\346\235\277\346\245\274"
        string_val: "\346\235\277\346\245\274"
        string_val: "\346\235\277\346\245\274"
        string_val: "\346\235\277\346\245\274"
        string_val: "\346\235\277\345\241\224\347\273\223\345\220\210"
        string_val: "\346\235\277\346\245\274"
        string_val: "\346\235\277\346\245\274"
        string_val: "\346\235\277\346\245\274"
        string_val: "\346\235\277\346\245\274"
        string_val: "\346\235\277\346\245\274"
        string_val: "\346\235\277\346\245\274"
        string_val: "\346\235\277\346\245\274"
        string_val: "\346\235\277\346\245\274"
        string_val: "\346\235\277\346\245\274"
        string_val: "\346\235\277\346\245\274"
        string_val: "\346\235\277\346\245\274"
        string_val: "\346\235\277\346\245\274"
        string_val: "\346\235\277\346\245\274"
        string_val: "\346\235\277\346\245\274"
        string_val: "\346\235\277\346\245\274"
        string_val: "\346\235\277\346\245\274"
        string_val: "\346\235\277\346\245\274"
        string_val: "\346\235\277\346\245\274"
        string_val: "\346\235\277\346\245\274"
        string_val: "\346\235\277\346\245\274"
        string_val: "\346\235\277\346\245\274"
        string_val: "\346\235\277\346\245\274"
        string_val: "\346\235\277\346\245\274"
        string_val: "\346\235\277\346\245\274"
        string_val: "\346\235\277\346\245\274"
        string_val: "\346\235\277\346\245\274"
        string_val: "\346\235\277\346\245\274"
        string_val: "\346\235\277\346\245\274"
        string_val: "\345\241\224\346\245\274"
        string_val: "\346\235\277\346\245\274"
      }
    }
  }
}
node {
  name: "Const_2"
  op: "Const"
  attr {
    key: "_output_shapes"
    value {
      list {
        shape {
          dim {
            size: 387
          }
        }
      }
    }
  }
  attr {
    key: "dtype"
    value {
      type: DT_STRING
    }
  }
  attr {
    key: "value"
    value {
      tensor {
        dtype: DT_STRING
        tensor_shape {
          dim {
            size: 387
          }
        }
        string_val: "\347\256\200\350\243\205"
        string_val: "\347\262\276\350\243\205"
        string_val: "\347\256\200\350\243\205"
        string_val: "\347\256\200\350\243\205"
        string_val: "\347\262\276\350\243\205"
        string_val: "\347\262\276\350\243\205"
        string_val: "\347\256\200\350\243\205"
        string_val: "\347\256\200\350\243\205"
        string_val: "\347\256\200\350\243\205"
        string_val: "\347\256\200\350\243\205"
        string_val: "\347\262\276\350\243\205"
        string_val: "\347\256\200\350\243\205"
        string_val: "\347\262\276\350\243\205"
        string_val: "\347\256\200\350\243\205"
        string_val: "\347\262\276\350\243\205"
        string_val: "\347\262\276\350\243\205"
        string_val: "\347\262\276\350\243\205"
        string_val: "\347\262\276\350\243\205"
        string_val: "\346\257\233\345\235\257"
        string_val: "\347\262\276\350\243\205"
        string_val: "\347\256\200\350\243\205"
        string_val: "\345\205\266\344\273\226"
        string_val: "\346\257\233\345\235\257"
        string_val: "\347\256\200\350\243\205"
        string_val: "\347\262\276\350\243\205"
        string_val: "\347\262\276\350\243\205"
        string_val: "\347\262\276\350\243\205"
        string_val: "\347\262\276\350\243\205"
        string_val: "\347\262\276\350\243\205"
        string_val: "\347\256\200\350\243\205"
        string_val: "\346\257\233\345\235\257"
        string_val: "\347\256\200\350\243\205"
        string_val: "\347\256\200\350\243\205"
        string_val: "\347\262\276\350\243\205"
        string_val: "\346\257\233\345\235\257"
        string_val: "\347\262\276\350\243\205"
        string_val: "\347\262\276\350\243\205"
        string_val: "\347\256\200\350\243\205"
        string_val: "\347\262\276\350\243\205"
        string_val: "\347\262\276\350\243\205"
        string_val: "\347\256\200\350\243\205"
        string_val: "\347\262\276\350\243\205"
        string_val: "\346\257\233\345\235\257"
        string_val: "\347\256\200\350\243\205"
        string_val: "\347\262\276\350\243\205"
        string_val: "\347\256\200\350\243\205"
        string_val: "\347\256\200\350\243\205"
        string_val: "\347\262\276\350\243\205"
        string_val: "\347\256\200\350\243\205"
        string_val: "\347\262\276\350\243\205"
        string_val: "\347\262\276\350\243\205"
        string_val: "\347\256\200\350\243\205"
        string_val: "\347\262\276\350\243\205"
        string_val: "\345\205\266\344\273\226"
        string_val: "\345\205\266\344\273\226"
        string_val: "\345\205\266\344\273\226"
        string_val: "\347\262\276\350\243\205"
        string_val: "\345\205\266\344\273\226"
        string_val: "\347\256\200\350\243\205"
        string_val: "\347\262\276\350\243\205"
        string_val: "\347\262\276\350\243\205"
        string_val: "\347\262\276\350\243\205"
        string_val: "\347\262\276\350\243\205"
        string_val: "\347\262\276\350\243\205"
        string_val: "\347\262\276\350\243\205"
        string_val: "\346\257\233\345\235\257"
        string_val: "\347\262\276\350\243\205"
        string_val: "\347\262\276\350\243\205"
        string_val: "\347\262\276\350\243\205"
        string_val: "\347\256\200\350\243\205"
        string_val: "\347\262\276\350\243\205"
        string_val: "\345\205\266\344\273\226"
        string_val: "\347\262\276\350\243\205"
        string_val: "\347\256\200\350\243\205"
        string_val: "\347\256\200\350\243\205"
        string_val: "\347\262\276\350\243\205"
        string_val: "\347\262\276\350\243\205"
        string_val: "\346\257\233\345\235\257"
        string_val: "\347\256\200\350\243\205"
        string_val: "\346\257\233\345\235\257"
        string_val: "\347\262\276\350\243\205"
        string_val: "\347\256\200\350\243\205"
        string_val: "\347\256\200\350\243\205"
        string_val: "\347\262\276\350\243\205"
        string_val: "\347\262\276\350\243\205"
        string_val: "\347\262\276\350\243\205"
        string_val: "\347\262\276\350\243\205"
        string_val: "\347\262\276\350\243\205"
        string_val: "\347\256\200\350\243\205"
        string_val: "\347\256\200\350\243\205"
        string_val: "\347\262\276\350\243\205"
        string_val: "\347\262\276\350\243\205"
        string_val: "\347\256\200\350\243\205"
        string_val: "\347\256\200\350\243\205"
        string_val: "\347\262\276\350\243\205"
        string_val: "\347\262\276\350\243\205"
        string_val: "\345\205\266\344\273\226"
        string_val: "\347\262\276\350\243\205"
        string_val: "\347\262\276\350\243\205"
        string_val: "\347\262\276\350\243\205"
        string_val: "\347\256\200\350\243\205"
        string_val: "\347\256\200\350\243\205"
        string_val: "\345\205\266\344\273\226"
        string_val: "\347\262\276\350\243\205"
        string_val: "\347\262\276\350\243\205"
        string_val: "\347\262\276\350\243\205"
        string_val: "\347\262\276\350\243\205"
        string_val: "\347\256\200\350\243\205"
        string_val: "\347\262\276\350\243\205"
        string_val: "\347\256\200\350\243\205"
        string_val: "\346\257\233\345\235\257"
        string_val: "\347\262\276\350\243\205"
        string_val: "\347\262\276\350\243\205"
        string_val: "\347\256\200\350\243\205"
        string_val: "\345\205\266\344\273\226"
        string_val: "\347\262\276\350\243\205"
        string_val: "\347\262\276\350\243\205"
        string_val: "\345\205\266\344\273\226"
        string_val: "\345\205\266\344\273\226"
        string_val: "\347\256\200\350\243\205"
        string_val: "\347\262\276\350\243\205"
        string_val: "\347\262\276\350\243\205"
        string_val: "\347\262\276\350\243\205"
        string_val: "\347\262\276\350\243\205"
        string_val: "\346\257\233\345\235\257"
        string_val: "\347\256\200\350\243\205"
        string_val: "\347\256\200\350\243\205"
        string_val: "\347\262\276\350\243\205"
        string_val: "\347\262\276\350\243\205"
        string_val: "\347\256\200\350\243\205"
        string_val: "\347\262\276\350\243\205"
        string_val: "\347\262\276\350\243\205"
        string_val: "\346\257\233\345\235\257"
        string_val: "\346\257\233\345\235\257"
        string_val: "\347\262\276\350\243\205"
        string_val: "\347\256\200\350\243\205"
        string_val: "\347\262\276\350\243\205"
        string_val: "\347\256\200\350\243\205"
        string_val: "\347\262\276\350\243\205"
        string_val: "\347\262\276\350\243\205"
        string_val: "\347\262\276\350\243\205"
        string_val: "\347\256\200\350\243\205"
        string_val: "\347\262\276\350\243\205"
        string_val: "\347\256\200\350\243\205"
        string_val: "\346\257\233\345\235\257"
        string_val: "\347\256\200\350\243\205"
        string_val: "\347\256\200\350\243\205"
        string_val: "\345\205\266\344\273\226"
        string_val: "\346\257\233\345\235\257"
        string_val: "\347\262\276\350\243\205"
        string_val: "\346\257\233\345\235\257"
        string_val: "\345\205\266\344\273\226"
        string_val: "\347\262\276\350\243\205"
        string_val: "\347\262\276\350\243\205"
        string_val: "\347\256\200\350\243\205"
        string_val: "\347\262\276\350\243\205"
        string_val: "\347\256\200\350\243\205"
        string_val: "\347\256\200\350\243\205"
        string_val: "\347\256\200\350\243\205"
        string_val: "\345\205\266\344\273\226"
        string_val: "\347\256\200\350\243\205"
        string_val: "\347\262\276\350\243\205"
        string_val: "\347\262\276\350\243\205"
        string_val: "\347\262\276\350\243\205"
        string_val: "\347\262\276\350\243\205"
        string_val: "\347\262\276\350\243\205"
        string_val: "\347\262\276\350\243\205"
        string_val: "\347\256\200\350\243\205"
        string_val: "\345\205\266\344\273\226"
        string_val: "\347\262\276\350\243\205"
        string_val: "\347\256\200\350\243\205"
        string_val: "\347\256\200\350\243\205"
        string_val: "\347\256\200\350\243\205"
        string_val: "\345\205\266\344\273\226"
        string_val: "\347\262\276\350\243\205"
        string_val: "\347\262\276\350\243\205"
        string_val: "\346\257\233\345\235\257"
        string_val: "\347\262\276\350\243\205"
        string_val: "\347\262\276\350\243\205"
        string_val: "\347\256\200\350\243\205"
        string_val: "\347\262\276\350\243\205"
        string_val: "\346\257\233\345\235\257"
        string_val: "\347\256\200\350\243\205"
        string_val: "\347\256\200\350\243\205"
        string_val: "\347\262\276\350\243\205"
        string_val: "\347\262\276\350\243\205"
        string_val: "\347\262\276\350\243\205"
        string_val: "\347\262\276\350\243\205"
        string_val: "\347\262\276\350\243\205"
        string_val: "\347\262\276\350\243\205"
        string_val: "\347\262\276\350\243\205"
        string_val: "\347\262\276\350\243\205"
        string_val: "\347\256\200\350\243\205"
        string_val: "\347\262\276\350\243\205"
        string_val: "\347\262\276\350\243\205"
        string_val: "\347\256\200\350\243\205"
        string_val: "\347\262\276\350\243\205"
        string_val: "\347\262\276\350\243\205"
        string_val: "\347\262\276\350\243\205"
        string_val: "\347\256\200\350\243\205"
        string_val: "\347\256\200\350\243\205"
        string_val: "\347\256\200\350\243\205"
        string_val: "\347\256\200\350\243\205"
        string_val: "\347\262\276\350\243\205"
        string_val: "\347\262\276\350\243\205"
        string_val: "\347\256\200\350\243\205"
        string_val: "\347\256\200\350\243\205"
        string_val: "\345\205\266\344\273\226"
        string_val: "\347\256\200\350\243\205"
        string_val: "\347\262\276\350\243\205"
        string_val: "\345\205\266\344\273\226"
        string_val: "\347\262\276\350\243\205"
        string_val: "\347\262\276\350\243\205"
        string_val: "\347\262\276\350\243\205"
        string_val: "\347\262\276\350\243\205"
        string_val: "\347\256\200\350\243\205"
        string_val: "\347\256\200\350\243\205"
        string_val: "\347\262\276\350\243\205"
        string_val: "\347\262\276\350\243\205"
        string_val: "\347\262\276\350\243\205"
        string_val: "\347\256\200\350\243\205"
        string_val: "\347\256\200\350\243\205"
        string_val: "\347\262\276\350\243\205"
        string_val: "\347\256\200\350\243\205"
        string_val: "\347\256\200\350\243\205"
        string_val: "\346\257\233\345\235\257"
        string_val: "\347\256\200\350\243\205"
        string_val: "\347\256\200\350\243\205"
        string_val: "\347\256\200\350\243\205"
        string_val: "\347\256\200\350\243\205"
        string_val: "\346\257\233\345\235\257"
        string_val: "\347\256\200\350\243\205"
        string_val: "\347\262\276\350\243\205"
        string_val: "\347\256\200\350\243\205"
        string_val: "\347\262\276\350\243\205"
        string_val: "\347\256\200\350\243\205"
        string_val: "\347\262\276\350\243\205"
        string_val: "\347\262\276\350\243\205"
        string_val: "\346\257\233\345\235\257"
        string_val: "\347\256\200\350\243\205"
        string_val: "\345\205\266\344\273\226"
        string_val: "\347\262\276\350\243\205"
        string_val: "\347\262\276\350\243\205"
        string_val: "\347\262\276\350\243\205"
        string_val: "\347\262\276\350\243\205"
        string_val: "\347\256\200\350\243\205"
        string_val: "\347\262\276\350\243\205"
        string_val: "\347\262\276\350\243\205"
        string_val: "\347\262\276\350\243\205"
        string_val: "\347\262\276\350\243\205"
        string_val: "\347\262\276\350\243\205"
        string_val: "\347\256\200\350\243\205"
        string_val: "\346\257\233\345\235\257"
        string_val: "\345\205\266\344\273\226"
        string_val: "\347\262\276\350\243\205"
        string_val: "\347\262\276\350\243\205"
        string_val: "\347\262\276\350\243\205"
        string_val: "\347\262\276\350\243\205"
        string_val: "\347\262\276\350\243\205"
        string_val: "\347\256\200\350\243\205"
        string_val: "\345\205\266\344\273\226"
        string_val: "\347\256\200\350\243\205"
        string_val: "\347\256\200\350\243\205"
        string_val: "\347\256\200\350\243\205"
        string_val: "\347\262\276\350\243\205"
        string_val: "\347\256\200\350\243\205"
        string_val: "\347\256\200\350\243\205"
        string_val: "\347\262\276\350\243\205"
        string_val: "\347\262\276\350\243\205"
        string_val: "\347\262\276\350\243\205"
        string_val: "\347\262\276\350\243\205"
        string_val: "\347\262\276\350\243\205"
        string_val: "\347\256\200\350\243\205"
        string_val: "\346\257\233\345\235\257"
        string_val: "\347\256\200\350\243\205"
        string_val: "\347\256\200\350\243\205"
        string_val: "\345\205\266\344\273\226"
        string_val: "\347\262\276\350\243\205"
        string_val: "\347\256\200\350\243\205"
        string_val: "\347\256\200\350\243\205"
        string_val: "\345\205\266\344\273\226"
        string_val: "\347\256\200\350\243\205"
        string_val: "\347\262\276\350\243\205"
        string_val: "\346\257\233\345\235\257"
        string_val: "\347\256\200\350\243\205"
        string_val: "\347\262\276\350\243\205"
        string_val: "\347\262\276\350\243\205"
        string_val: "\347\262\276\350\243\205"
        string_val: "\347\262\276\350\243\205"
        string_val: "\347\262\276\350\243\205"
        string_val: "\345\205\266\344\273\226"
        string_val: "\347\262\276\350\243\205"
        string_val: "\345\205\266\344\273\226"
        string_val: "\347\262\276\350\243\205"
        string_val: "\347\262\276\350\243\205"
        string_val: "\347\262\276\350\243\205"
        string_val: "\347\262\276\350\243\205"
        string_val: "\347\262\276\350\243\205"
        string_val: "\347\262\276\350\243\205"
        string_val: "\347\262\276\350\243\205"
        string_val: "\347\256\200\350\243\205"
        string_val: "\347\262\276\350\243\205"
        string_val: "\347\262\276\350\243\205"
        string_val: "\347\256\200\350\243\205"
        string_val: "\347\262\276\350\243\205"
        string_val: "\347\262\276\350\243\205"
        string_val: "\347\262\276\350\243\205"
        string_val: "\347\256\200\350\243\205"
        string_val: "\347\262\276\350\243\205"
        string_val: "\347\262\276\350\243\205"
        string_val: "\347\262\276\350\243\205"
        string_val: "\347\262\276\350\243\205"
        string_val: "\347\256\200\350\243\205"
        string_val: "\347\256\200\350\243\205"
        string_val: "\345\205\266\344\273\226"
        string_val: "\347\262\276\350\243\205"
        string_val: "\347\256\200\350\243\205"
        string_val: "\347\262\276\350\243\205"
        string_val: "\347\256\200\350\243\205"
        string_val: "\347\262\276\350\243\205"
        string_val: "\346\257\233\345\235\257"
        string_val: "\347\262\276\350\243\205"
        string_val: "\347\256\200\350\243\205"
        string_val: "\346\257\233\345\235\257"
        string_val: "\346\257\233\345\235\257"
        string_val: "\345\205\266\344\273\226"
        string_val: "\345\205\266\344\273\226"
        string_val: "\347\256\200\350\243\205"
        string_val: "\347\262\276\350\243\205"
        string_val: "\347\262\276\350\243\205"
        string_val: "\347\256\200\350\243\205"
        string_val: "\346\257\233\345\235\257"
        string_val: "\347\262\276\350\243\205"
        string_val: "\347\262\276\350\243\205"
        string_val: "\347\262\276\350\243\205"
        string_val: "\347\262\276\350\243\205"
        string_val: "\347\256\200\350\243\205"
        string_val: "\347\262\276\350\243\205"
        string_val: "\345\205\266\344\273\226"
        string_val: "\347\262\276\350\243\205"
        string_val: "\345\205\266\344\273\226"
        string_val: "\346\257\233\345\235\257"
        string_val: "\347\256\200\350\243\205"
        string_val: "\347\256\200\350\243\205"
        string_val: "\347\262\276\350\243\205"
        string_val: "\347\256\200\350\243\205"
        string_val: "\347\262\276\350\243\205"
        string_val: "\347\262\276\350\243\205"
        string_val: "\347\262\276\350\243\205"
        string_val: "\347\262\276\350\243\205"
        string_val: "\346\257\233\345\235\257"
        string_val: "\347\262\276\350\243\205"
        string_val: "\347\262\276\350\243\205"
        string_val: "\347\262\276\350\243\205"
        string_val: "\347\256\200\350\243\205"
        string_val: "\347\262\276\350\243\205"
        string_val: "\347\262\276\350\243\205"
        string_val: "\347\262\276\350\243\205"
        string_val: "\347\256\200\350\243\205"
        string_val: "\347\262\276\350\243\205"
        string_val: "\347\262\276\350\243\205"
        string_val: "\347\256\200\350\243\205"
        string_val: "\347\262\276\350\243\205"
        string_val: "\347\262\276\350\243\205"
        string_val: "\345\205\266\344\273\226"
        string_val: "\347\256\200\350\243\205"
        string_val: "\347\262\276\350\243\205"
        string_val: "\347\262\276\350\243\205"
        string_val: "\347\256\200\350\243\205"
        string_val: "\347\256\200\350\243\205"
        string_val: "\347\262\276\350\243\205"
        string_val: "\347\256\200\350\243\205"
        string_val: "\347\256\200\350\243\205"
        string_val: "\345\205\266\344\273\226"
        string_val: "\347\262\276\350\243\205"
        string_val: "\347\262\276\350\243\205"
        string_val: "\345\205\266\344\273\226"
        string_val: "\347\262\276\350\243\205"
        string_val: "\347\256\200\350\243\205"
        string_val: "\347\262\276\350\243\205"
        string_val: "\347\256\200\350\243\205"
        string_val: "\347\256\200\350\243\205"
        string_val: "\347\256\200\350\243\205"
        string_val: "\346\257\233\345\235\257"
        string_val: "\347\262\276\350\243\205"
        string_val: "\346\257\233\345\235\257"
        string_val: "\347\256\200\350\243\205"
      }
    }
  }
}
node {
  name: "Const_3"
  op: "Const"
  attr {
    key: "_output_shapes"
    value {
      list {
        shape {
          dim {
            size: 387
          }
        }
      }
    }
  }
  attr {
    key: "dtype"
    value {
      type: DT_DOUBLE
    }
  }
  attr {
    key: "value"
    value {
      tensor {
        dtype: DT_DOUBLE
        tensor_shape {
          dim {
            size: 387
          }
        }
        tensor_content: "…"
      }
    }
  }
}
node {
  name: "Const_4"
  op: "Const"
  attr {
    key: "_output_shapes"
    value {
      list {
        shape {
          dim {
            size: 387
          }
        }
      }
    }
  }
  attr {
    key: "dtype"
    value {
      type: DT_DOUBLE
    }
  }
  attr {
    key: "value"
    value {
      tensor {
        dtype: DT_DOUBLE
        tensor_shape {
          dim {
            size: 387
          }
        }
        tensor_content: "…"
      }
    }
  }
}
node {
  name: "Const_5"
  op: "Const"
  attr {
    key: "_output_shapes"
    value {
      list {
        shape {
          dim {
            size: 387
          }
        }
      }
    }
  }
  attr {
    key: "dtype"
    value {
      type: DT_DOUBLE
    }
  }
  attr {
    key: "value"
    value {
      tensor {
        dtype: DT_DOUBLE
        tensor_shape {
          dim {
            size: 387
          }
        }
        tensor_content: "…"
      }
    }
  }
}
node {
  name: "Const_6"
  op: "Const"
  attr {
    key: "_output_shapes"
    value {
      list {
        shape {
          dim {
            size: 387
          }
        }
      }
    }
  }
  attr {
    key: "dtype"
    value {
      type: DT_DOUBLE
    }
  }
  attr {
    key: "value"
    value {
      tensor {
        dtype: DT_DOUBLE
        tensor_shape {
          dim {
            size: 387
          }
        }
        tensor_content: "…"
      }
    }
  }
}
node {
  name: "Const_7"
  op: "Const"
  attr {
    key: "_output_shapes"
    value {
      list {
        shape {
          dim {
            size: 387
          }
        }
      }
    }
  }
  attr {
    key: "dtype"
    value {
      type: DT_STRING
    }
  }
  attr {
    key: "value"
    value {
      tensor {
        dtype: DT_STRING
        tensor_shape {
          dim {
            size: 387
          }
        }
        string_val: "\347\240\226\346\267\267\347\273\223\346\236\204"
        string_val: "\347\240\226\346\267\267\347\273\223\346\236\204"
        string_val: "\347\240\226\346\267\267\347\273\223\346\236\204"
        string_val: "\351\222\242\346\267\267\347\273\223\346\236\204"
        string_val: "\351\222\242\346\267\267\347\273\223\346\236\204"
        string_val: "\347\240\226\346\267\267\347\273\223\346\236\204"
        string_val: "\351\222\242\346\267\267\347\273\223\346\236\204"
        string_val: "\347\240\226\346\267\267\347\273\223\346\236\204"
        string_val: "\351\222\242\346\267\267\347\273\223\346\236\204"
        string_val: "\347\240\226\346\267\267\347\273\223\346\236\204"
        string_val: "\351\222\242\346\267\267\347\273\223\346\236\204"
        string_val: "\347\240\226\346\267\267\347\273\223\346\236\204"
        string_val: "\351\222\242\346\267\267\347\273\223\346\236\204"
        string_val: "\347\240\226\346\267\267\347\273\223\346\236\204"
        string_val: "\351\222\242\346\267\267\347\273\223\346\236\204"
        string_val: "\347\240\226\346\267\267\347\273\223\346\236\204"
        string_val: "\347\240\226\346\267\267\347\273\223\346\236\204"
        string_val: "\351\222\242\346\267\267\347\273\223\346\236\204"
        string_val: "\347\240\226\346\267\267\347\273\223\346\236\204"
        string_val: "\351\222\242\346\267\267\347\273\223\346\236\204"
        string_val: "\347\240\226\346\267\267\347\273\223\346\236\204"
        string_val: "\351\222\242\346\267\267\347\273\223\346\236\204"
        string_val: "\351\222\242\346\267\267\347\273\223\346\236\204"
        string_val: "\347\240\226\346\267\267\347\273\223\346\236\204"
        string_val: "\351\222\242\346\267\267\347\273\223\346\236\204"
        string_val: "\347\240\226\346\267\267\347\273\223\346\236\204"
        string_val: "\351\222\242\346\267\267\347\273\223\346\236\204"
        string_val: "\351\222\242\346\267\267\347\273\223\346\236\204"
        string_val: "\347\240\226\346\267\267\347\273\223\346\236\204"
        string_val: "\347\240\226\346\267\267\347\273\223\346\236\204"
        string_val: "\351\222\242\346\267\267\347\273\223\346\236\204"
        string_val: "\351\222\242\346\267\267\347\273\223\346\236\204"
        string_val: "\351\222\242\346\267\267\347\273\223\346\236\204"
        string_val: "\351\222\242\346\267\267\347\273\223\346\236\204"
        string_val: "\351\222\242\346\267\267\347\273\223\346\236\204"
        string_val: "\351\222\242\346\267\267\347\273\223\346\236\204"
        string_val: "\351\222\242\346\267\267\347\273\223\346\236\204"
        string_val: "\347\240\226\346\267\267\347\273\223\346\236\204"
        string_val: "\351\222\242\346\267\267\347\273\223\346\236\204"
        string_val: "\351\222\242\346\267\267\347\273\223\346\236\204"
        string_val: "\347\240\226\346\267\267\347\273\223\346\236\204"
        string_val: "\351\222\242\346\267\267\347\273\223\346\236\204"
        string_val: "\351\222\242\346\267\267\347\273\223\346\236\204"
        string_val: "\347\240\226\346\267\267\347\273\223\346\236\204"
        string_val: "\347\240\226\346\267\267\347\273\223\346\236\204"
        string_val: "\347\240\226\346\267\267\347\273\223\346\236\204"
        string_val: "\347\240\226\346\267\267\347\273\223\346\236\204"
        string_val: "\347\240\226\346\267\267\347\273\223\346\236\204"
        string_val: "\351\222\242\346\267\267\347\273\223\346\236\204"
        string_val: "\351\222\242\346\267\267\347\273\223\346\236\204"
        string_val: "\347\240\226\346\267\267\347\273\223\346\236\204"
        string_val: "\347\240\226\346\267\267\347\273\223\346\236\204"
        string_val: "\347\240\226\346\267\267\347\273\223\346\236\204"
        string_val: "\351\222\242\346\267\267\347\273\223\346\236\204"
        string_val: "\351\222\242\346\267\267\347\273\223\346\236\204"
        string_val: "\351\222\242\346\267\267\347\273\223\346\236\204"
        string_val: "\351\222\242\346\267\267\347\273\223\346\236\204"
        string_val: "\347\240\226\346\267\267\347\273\223\346\236\204"
        string_val: "\351\222\242\346\267\267\347\273\223\346\236\204"
        string_val: "\351\222\242\346\267\267\347\273\223\346\236\204"
        string_val: "\351\222\242\346\267\267\347\273\223\346\236\204"
        string_val: "\351\222\242\346\267\267\347\273\223\346\236\204"
        string_val: "\347\240\226\346\267\267\347\273\223\346\236\204"
        string_val: "\347\240\226\346\267\267\347\273\223\346\236\204"
        string_val: "\351\222\242\346\267\267\347\273\223\346\236\204"
        string_val: "\351\222\242\346\267\267\347\273\223\346\236\204"
        string_val: "\347\240\226\346\267\267\347\273\223\346\236\204"
        string_val: "\351\222\242\346\267\267\347\273\223\346\236\204"
        string_val: "\347\240\226\346\267\267\347\273\223\346\236\204"
        string_val: "\351\222\242\346\267\267\347\273\223\346\236\204"
        string_val: "\351\222\242\346\267\267\347\273\223\346\236\204"
        string_val: "\347\240\226\346\267\267\347\273\223\346\236\204"
        string_val: "\351\222\242\346\267\267\347\273\223\346\236\204"
        string_val: "\347\240\226\346\267\267\347\273\223\346\236\204"
        string_val: "\347\240\226\346\267\267\347\273\223\346\236\204"
        string_val: "\351\222\242\346\267\267\347\273\223\346\236\204"
        string_val: "\351\222\242\346\267\267\347\273\223\346\236\204"
        string_val: "\351\222\242\346\267\267\347\273\223\346\236\204"
        string_val: "\347\240\226\346\267\267\347\273\223\346\236\204"
        string_val: "\351\222\242\346\267\267\347\273\223\346\236\204"
        string_val: "\347\240\226\346\267\267\347\273\223\346\236\204"
        string_val: "\347\240\226\346\267\267\347\273\223\346\236\204"
        string_val: "\351\222\242\346\267\267\347\273\223\346\236\204"
        string_val: "\351\222\242\346\267\267\347\273\223\346\236\204"
        string_val: "\351\222\242\346\267\267\347\273\223\346\236\204"
        string_val: "\351\222\242\346\267\267\347\273\223\346\236\204"
        string_val: "\347\240\226\346\267\267\347\273\223\346\236\204"
        string_val: "\351\222\242\346\267\267\347\273\223\346\236\204"
        string_val: "\351\222\242\346\267\267\347\273\223\346\236\204"
        string_val: "\351\222\242\346\267\267\347\273\223\346\236\204"
        string_val: "\347\240\226\346\267\267\347\273\223\346\236\204"
        string_val: "\351\222\242\346\267\267\347\273\223\346\236\204"
        string_val: "\347\240\226\346\267\267\347\273\223\346\236\204"
        string_val: "\351\222\242\346\267\267\347\273\223\346\236\204"
        string_val: "\351\222\242\346\267\267\347\273\223\346\236\204"
        string_val: "\347\240\226\346\267\267\347\273\223\346\236\204"
        string_val: "\347\240\226\346\267\267\347\273\223\346\236\204"
        string_val: "\347\240\226\346\267\267\347\273\223\346\236\204"
        string_val: "\351\222\242\346\267\267\347\273\223\346\236\204"
        string_val: "\351\222\242\346\267\267\347\273\223\346\236\204"
        string_val: "\347\240\226\346\267\267\347\273\223\346\236\204"
        string_val: "\351\222\242\346\267\267\347\273\223\346\236\204"
        string_val: "\351\222\242\346\267\267\347\273\223\346\236\204"
        string_val: "\351\222\242\346\267\267\347\273\223\346\236\204"
        string_val: "\351\222\242\346\267\267\347\273\223\346\236\204"
        string_val: "\351\222\242\346\267\267\347\273\223\346\236\204"
        string_val: "\351\222\242\346\267\267\347\273\223\346\236\204"
        string_val: "\347\240\226\346\267\267\347\273\223\346\236\204"
        string_val: "\351\222\242\346\267\267\347\273\223\346\236\204"
        string_val: "\347\240\226\346\267\267\347\273\223\346\236\204"
        string_val: "\351\222\242\346\267\267\347\273\223\346\236\204"
        string_val: "\347\240\226\346\267\267\347\273\223\346\236\204"
        string_val: "\347\240\226\346\267\267\347\273\223\346\236\204"
        string_val: "\351\222\242\346\267\267\347\273\223\346\236\204"
        string_val: "\351\222\242\346\267\267\347\273\223\346\236\204"
        string_val: "\351\222\242\346\267\267\347\273\223\346\236\204"
        string_val: "\351\222\242\346\267\267\347\273\223\346\236\204"
        string_val: "\351\222\242\346\267\267\347\273\223\346\236\204"
        string_val: "\351\222\242\346\267\267\347\273\223\346\236\204"
        string_val: "\347\240\226\346\267\267\347\273\223\346\236\204"
        string_val: "\351\222\242\346\267\267\347\273\223\346\236\204"
        string_val: "\347\240\226\346\267\267\347\273\223\346\236\204"
        string_val: "\351\222\242\346\267\267\347\273\223\346\236\204"
        string_val: "\347\240\226\346\267\267\347\273\223\346\236\204"
        string_val: "\347\240\226\346\267\267\347\273\223\346\236\204"
        string_val: "\347\240\226\346\267\267\347\273\223\346\236\204"
        string_val: "\347\240\226\346\267\267\347\273\223\346\236\204"
        string_val: "\347\240\226\346\267\267\347\273\223\346\236\204"
        string_val: "\347\240\226\346\267\267\347\273\223\346\236\204"
        string_val: "\347\240\226\346\267\267\347\273\223\346\236\204"
        string_val: "\347\240\226\346\267\267\347\273\223\346\236\204"
        string_val: "\347\240\226\346\267\267\347\273\223\346\236\204"
        string_val: "\351\222\242\346\267\267\347\273\223\346\236\204"
        string_val: "\351\222\242\346\267\267\347\273\223\346\236\204"
        string_val: "\351\222\242\346\267\267\347\273\223\346\236\204"
        string_val: "\347\240\226\346\267\267\347\273\223\346\236\204"
        string_val: "\351\222\242\346\267\267\347\273\223\346\236\204"
        string_val: "\347\240\226\346\267\267\347\273\223\346\236\204"
        string_val: "\347\240\226\346\267\267\347\273\223\346\236\204"
        string_val: "\347\240\226\346\267\267\347\273\223\346\236\204"
        string_val: "\351\222\242\346\267\267\347\273\223\346\236\204"
        string_val: "\347\240\226\346\267\267\347\273\223\346\236\204"
        string_val: "\351\222\242\346\267\267\347\273\223\346\236\204"
        string_val: "\347\240\226\346\267\267\347\273\223\346\236\204"
        string_val: "\347\240\226\346\267\267\347\273\223\346\236\204"
        string_val: "\347\240\226\346\267\267\347\273\223\346\236\204"
        string_val: "\347\240\226\346\267\267\347\273\223\346\236\204"
        string_val: "\347\240\226\346\267\267\347\273\223\346\236\204"
        string_val: "\351\222\242\346\267\267\347\273\223\346\236\204"
        string_val: "\351\222\242\346\267\267\347\273\223\346\236\204"
        string_val: "\351\222\242\346\267\267\347\273\223\346\236\204"
        string_val: "\347\240\226\346\267\267\347\273\223\346\236\204"
        string_val: "\351\222\242\346\267\267\347\273\223\346\236\204"
        string_val: "\346\267\267\345\220\210\347\273\223\346\236\204"
        string_val: "\347\240\226\346\267\267\347\273\223\346\236\204"
        string_val: "\351\222\242\346\267\267\347\273\223\346\236\204"
        string_val: "\347\240\226\346\267\267\347\273\223\346\236\204"
        string_val: "\351\222\242\346\267\267\347\273\223\346\236\204"
        string_val: "\351\222\242\346\267\267\347\273\223\346\236\204"
        string_val: "\351\222\242\346\267\267\347\273\223\346\236\204"
        string_val: "\347\240\226\346\267\267\347\273\223\346\236\204"
        string_val: "\351\222\242\346\267\267\347\273\223\346\236\204"
        string_val: "\351\222\242\346\267\267\347\273\223\346\236\204"
        string_val: "\347\240\226\346\267\267\347\273\223\346\236\204"
        string_val: "\351\222\242\346\267\267\347\273\223\346\236\204"
        string_val: "\347\240\226\346\267\267\347\273\223\346\236\204"
        string_val: "\351\222\242\346\267\267\347\273\223\346\236\204"
        string_val: "\351\222\242\346\267\267\347\273\223\346\236\204"
        string_val: "\351\222\242\346\267\267\347\273\223\346\236\204"
        string_val: "\347\240\226\346\267\267\347\273\223\346\236\204"
        string_val: "\347\240\226\346\267\267\347\273\223\346\236\204"
        string_val: "\347\240\226\346\267\267\347\273\223\346\236\204"
        string_val: "\347\240\226\346\267\267\347\273\223\346\236\204"
        string_val: "\351\222\242\346\267\267\347\273\223\346\236\204"
        string_val: "\347\240\226\346\267\267\347\273\223\346\236\204"
        string_val: "\351\222\242\346\267\267\347\273\223\346\236\204"
        string_val: "\351\222\242\346\267\267\347\273\223\346\236\204"
        string_val: "\347\240\226\346\267\267\347\273\223\346\236\204"
        string_val: "\351\222\242\346\267\267\347\273\223\346\236\204"
        string_val: "\347\240\226\346\267\267\347\273\223\346\236\204"
        string_val: "\347\240\226\346\267\267\347\273\223\346\236\204"
        string_val: "\351\222\242\346\267\267\347\273\223\346\236\204"
        string_val: "\351\222\242\346\267\267\347\273\223\346\236\204"
        string_val: "\347\240\226\346\267\267\347\273\223\346\236\204"
        string_val: "\351\222\242\346\267\267\347\273\223\346\236\204"
        string_val: "\351\222\242\346\267\267\347\273\223\346\236\204"
        string_val: "\351\222\242\346\267\267\347\273\223\346\236\204"
        string_val: "\347\240\226\346\267\267\347\273\223\346\236\204"
        string_val: "\351\222\242\346\267\267\347\273\223\346\236\204"
        string_val: "\351\222\242\346\267\267\347\273\223\346\236\204"
        string_val: "\351\222\242\346\267\267\347\273\223\346\236\204"
        string_val: "\351\222\242\346\267\267\347\273\223\346\236\204"
        string_val: "\351\222\242\346\267\267\347\273\223\346\236\204"
        string_val: "\351\222\242\346\267\267\347\273\223\346\236\204"
        string_val: "\347\240\226\346\267\267\347\273\223\346\236\204"
        string_val: "\347\240\226\346\267\267\347\273\223\346\236\204"
        string_val: "\351\222\242\346\267\267\347\273\223\346\236\204"
        string_val: "\351\222\242\346\267\267\347\273\223\346\236\204"
        string_val: "\351\222\242\346\267\267\347\273\223\346\236\204"
        string_val: "\347\240\226\346\267\267\347\273\223\346\236\204"
        string_val: "\351\222\242\346\267\267\347\273\223\346\236\204"
        string_val: "\347\240\226\346\267\267\347\273\223\346\236\204"
        string_val: "\347\240\226\346\267\267\347\273\223\346\236\204"
        string_val: "\351\222\242\346\267\267\347\273\223\346\236\204"
        string_val: "\347\240\226\346\267\267\347\273\223\346\236\204"
        string_val: "\351\222\242\346\267\267\347\273\223\346\236\204"
        string_val: "\351\222\242\346\267\267\347\273\223\346\236\204"
        string_val: "\351\222\242\346\267\267\347\273\223\346\236\204"
        string_val: "\351\222\242\346\267\267\347\273\223\346\236\204"
        string_val: "\351\222\242\346\267\267\347\273\223\346\236\204"
        string_val: "\351\222\242\346\267\267\347\273\223\346\236\204"
        string_val: "\347\240\226\346\267\267\347\273\223\346\236\204"
        string_val: "\347\240\226\346\267\267\347\273\223\346\236\204"
        string_val: "\347\240\226\346\267\267\347\273\223\346\236\204"
        string_val: "\351\222\242\346\267\267\347\273\223\346\236\204"
        string_val: "\351\222\242\346\267\267\347\273\223\346\236\204"
        string_val: "\347\240\226\346\267\267\347\273\223\346\236\204"
        string_val: "\351\222\242\346\267\267\347\273\223\346\236\204"
        string_val: "\351\222\242\346\267\267\347\273\223\346\236\204"
        string_val: "\351\222\242\346\267\267\347\273\223\346\236\204"
        string_val: "\351\222\242\346\267\267\347\273\223\346\236\204"
        string_val: "\351\222\242\346\267\267\347\273\223\346\236\204"
        string_val: "\351\222\242\346\267\267\347\273\223\346\236\204"
        string_val: "\347\240\226\346\267\267\347\273\223\346\236\204"
        string_val: "\347\240\226\346\267\267\347\273\223\346\236\204"
        string_val: "\347\240\226\346\267\267\347\273\223\346\236\204"
        string_val: "\347\240\226\346\267\267\347\273\223\346\236\204"
        string_val: "\351\222\242\346\267\267\347\273\223\346\236\204"
        string_val: "\351\222\242\346\267\267\347\273\223\346\236\204"
        string_val: "\347\240\226\346\267\267\347\273\223\346\236\204"
        string_val: "\347\240\226\346\267\267\347\273\223\346\236\204"
        string_val: "\347\240\226\346\267\267\347\273\223\346\236\204"
        string_val: "\347\240\226\346\267\267\347\273\223\346\236\204"
        string_val: "\351\222\242\346\267\267\347\273\223\346\236\204"
        string_val: "\347\240\226\346\267\267\347\273\223\346\236\204"
        string_val: "\351\222\242\346\267\267\347\273\223\346\236\204"
        string_val: "\351\222\242\346\267\267\347\273\223\346\236\204"
        string_val: "\351\222\242\346\267\267\347\273\223\346\236\204"
        string_val: "\351\222\242\346\267\267\347\273\223\346\236\204"
        string_val: "\351\222\242\346\267\267\347\273\223\346\236\204"
        string_val: "\351\222\242\346\267\267\347\273\223\346\236\204"
        string_val: "\351\222\242\346\267\267\347\273\223\346\236\204"
        string_val: "\351\222\242\346\267\267\347\273\223\346\236\204"
        string_val: "\351\222\242\346\267\267\347\273\223\346\236\204"
        string_val: "\351\222\242\346\267\267\347\273\223\346\236\204"
        string_val: "\351\222\242\346\267\267\347\273\223\346\236\204"
        string_val: "\347\240\226\346\267\267\347\273\223\346\236\204"
        string_val: "\351\222\242\346\267\267\347\273\223\346\236\204"
        string_val: "\351\222\242\346\267\267\347\273\223\346\236\204"
        string_val: "\351\222\242\346\267\267\347\273\223\346\236\204"
        string_val: "\347\240\226\346\267\267\347\273\223\346\236\204"
        string_val: "\347\240\226\346\267\267\347\273\223\346\236\204"
        string_val: "\351\222\242\346\267\267\347\273\223\346\236\204"
        string_val: "\351\222\242\346\267\267\347\273\223\346\236\204"
        string_val: "\347\240\226\346\267\267\347\273\223\346\236\204"
        string_val: "\351\222\242\346\267\267\347\273\223\346\236\204"
        string_val: "\351\222\242\346\267\267\347\273\223\346\236\204"
        string_val: "\351\222\242\346\267\267\347\273\223\346\236\204"
        string_val: "\351\222\242\346\267\267\347\273\223\346\236\204"
        string_val: "\351\222\242\346\267\267\347\273\223\346\236\204"
        string_val: "\351\222\242\346\267\267\347\273\223\346\236\204"
        string_val: "\351\222\242\346\267\267\347\273\223\346\236\204"
        string_val: "\351\222\242\346\267\267\347\273\223\346\236\204"
        string_val: "\347\240\226\346\267\267\347\273\223\346\236\204"
        string_val: "\351\222\242\346\267\267\347\273\223\346\236\204"
        string_val: "\347\240\226\346\267\267\347\273\223\346\236\204"
        string_val: "\347\240\226\346\267\267\347\273\223\346\236\204"
        string_val: "\351\222\242\346\267\267\347\273\223\346\236\204"
        string_val: "\347\240\226\346\267\267\347\273\223\346\236\204"
        string_val: "\351\222\242\346\267\267\347\273\223\346\236\204"
        string_val: "\347\240\226\346\267\267\347\273\223\346\236\204"
        string_val: "\347\240\226\346\267\267\347\273\223\346\236\204"
        string_val: "\347\240\226\346\267\267\347\273\223\346\236\204"
        string_val: "\347\240\226\346\267\267\347\273\223\346\236\204"
        string_val: "\347\240\226\346\267\267\347\273\223\346\236\204"
        string_val: "\347\240\226\346\267\267\347\273\223\346\236\204"
        string_val: "\347\240\226\346\267\267\347\273\223\346\236\204"
        string_val: "\347\240\226\346\267\267\347\273\223\346\236\204"
        string_val: "\347\240\226\346\267\267\347\273\223\346\236\204"
        string_val: "\347\240\226\346\267\267\347\273\223\346\236\204"
        string_val: "\351\222\242\346\267\267\347\273\223\346\236\204"
        string_val: "\351\222\242\346\267\267\347\273\223\346\236\204"
        string_val: "\347\240\226\346\267\267\347\273\223\346\236\204"
        string_val: "\351\222\242\346\267\267\347\273\223\346\236\204"
        string_val: "\351\222\242\346\267\267\347\273\223\346\236\204"
        string_val: "\351\222\242\346\267\267\347\273\223\346\236\204"
        string_val: "\351\222\242\346\267\267\347\273\223\346\236\204"
        string_val: "\347\240\226\346\267\267\347\273\223\346\236\204"
        string_val: "\347\240\226\346\267\267\347\273\223\346\236\204"
        string_val: "\347\240\226\346\267\267\347\273\223\346\236\204"
        string_val: "\351\222\242\346\267\267\347\273\223\346\236\204"
        string_val: "\351\222\242\346\267\267\347\273\223\346\236\204"
        string_val: "\351\222\242\346\267\267\347\273\223\346\236\204"
        string_val: "\351\222\242\346\267\267\347\273\223\346\236\204"
        string_val: "\351\222\242\346\267\267\347\273\223\346\236\204"
        string_val: "\351\222\242\346\267\267\347\273\223\346\236\204"
        string_val: "\351\222\242\346\267\267\347\273\223\346\236\204"
        string_val: "\347\240\226\346\267\267\347\273\223\346\236\204"
        string_val: "\347\240\226\346\267\267\347\273\223\346\236\204"
        string_val: "\351\222\242\346\267\267\347\273\223\346\236\204"
        string_val: "\351\222\242\346\267\267\347\273\223\346\236\204"
        string_val: "\351\222\242\346\267\267\347\273\223\346\236\204"
        string_val: "\351\222\242\346\267\267\347\273\223\346\236\204"
        string_val: "\347\240\226\346\267\267\347\273\223\346\236\204"
        string_val: "\347\240\226\346\267\267\347\273\223\346\236\204"
        string_val: "\351\222\242\346\267\267\347\273\223\346\236\204"
        string_val: "\351\222\242\346\267\267\347\273\223\346\236\204"
        string_val: "\347\240\226\346\267\267\347\273\223\346\236\204"
        string_val: "\351\222\242\346\267\267\347\273\223\346\236\204"
        string_val: "\347\240\226\346\267\267\347\273\223\346\236\204"
        string_val: "\351\222\242\346\267\267\347\273\223\346\236\204"
        string_val: "\347\240\226\346\267\267\347\273\223\346\236\204"
        string_val: "\351\222\242\346\267\267\347\273\223\346\236\204"
        string_val: "\351\222\242\346\267\267\347\273\223\346\236\204"
        string_val: "\347\240\226\346\267\267\347\273\223\346\236\204"
        string_val: "\351\222\242\346\267\267\347\273\223\346\236\204"
        string_val: "\347\240\226\346\267\267\347\273\223\346\236\204"
        string_val: "\351\222\242\346\267\267\347\273\223\346\236\204"
        string_val: "\351\222\242\346\267\267\347\273\223\346\236\204"
        string_val: "\347\240\226\346\267\267\347\273\223\346\236\204"
        string_val: "\351\222\242\346\267\267\347\273\223\346\236\204"
        string_val: "\351\222\242\346\267\267\347\273\223\346\236\204"
        string_val: "\351\222\242\346\267\267\347\273\223\346\236\204"
        string_val: "\351\222\242\346\267\267\347\273\223\346\236\204"
        string_val: "\351\222\242\346\267\267\347\273\223\346\236\204"
        string_val: "\351\222\242\346\267\267\347\273\223\346\236\204"
        string_val: "\351\222\242\346\267\267\347\273\223\346\236\204"
        string_val: "\351\222\242\346\267\267\347\273\223\346\236\204"
        string_val: "\351\222\242\346\267\267\347\273\223\346\236\204"
        string_val: "\347\240\226\346\267\267\347\273\223\346\236\204"
        string_val: "\351\222\242\346\267\267\347\273\223\346\236\204"
        string_val: "\346\234\252\347\237\245\347\273\223\346\236\204"
        string_val: "\351\222\242\346\267\267\347\273\223\346\236\204"
        string_val: "\351\222\242\346\267\267\347\273\223\346\236\204"
        string_val: "\347\240\226\346\267\267\347\273\223\346\236\204"
        string_val: "\347\240\226\346\267\267\347\273\223\346\236\204"
        string_val: "\347\240\226\346\267\267\347\273\223\346\236\204"
        string_val: "\351\222\242\346\267\267\347\273\223\346\236\204"
        string_val: "\347\240\226\346\267\267\347\273\223\346\236\204"
        string_val: "\347\240\226\346\267\267\347\273\223\346\236\204"
        string_val: "\347\240\226\346\267\267\347\273\223\346\236\204"
        string_val: "\351\222\242\346\267\267\347\273\223\346\236\204"
        string_val: "\346\267\267\345\220\210\347\273\223\346\236\204"
        string_val: "\351\222\242\346\267\267\347\273\223\346\236\204"
        string_val: "\347\240\226\346\267\267\347\273\223\346\236\204"
        string_val: "\347\240\226\346\267\267\347\273\223\346\236\204"
        string_val: "\351\222\242\346\267\267\347\273\223\346\236\204"
        string_val: "\351\222\242\346\267\267\347\273\223\346\236\204"
        string_val: "\351\222\242\346\267\267\347\273\223\346\236\204"
        string_val: "\351\222\242\346\267\267\347\273\223\346\236\204"
        string_val: "\351\222\242\346\267\267\347\273\223\346\236\204"
        string_val: "\347\240\226\346\267\267\347\273\223\346\236\204"
        string_val: "\351\222\242\346\267\267\347\273\223\346\236\204"
        string_val: "\351\222\242\346\267\267\347\273\223\346\236\204"
        string_val: "\351\222\242\346\267\267\347\273\223\346\236\204"
        string_val: "\347\240\226\346\267\267\347\273\223\346\236\204"
        string_val: "\351\222\242\346\267\267\347\273\223\346\236\204"
        string_val: "\347\240\226\346\267\267\347\273\223\346\236\204"
        string_val: "\347\240\226\346\267\267\347\273\223\346\236\204"
        string_val: "\351\222\242\346\267\267\347\273\223\346\236\204"
        string_val: "\351\222\242\346\267\267\347\273\223\346\236\204"
        string_val: "\351\222\242\346\267\267\347\273\223\346\236\204"
        string_val: "\351\222\242\346\267\267\347\273\223\346\236\204"
        string_val: "\351\222\242\346\267\267\347\273\223\346\236\204"
        string_val: "\347\240\226\346\267\267\347\273\223\346\236\204"
        string_val: "\347\240\226\346\267\267\347\273\223\346\236\204"
        string_val: "\351\222\242\346\267\267\347\273\223\346\236\204"
        string_val: "\351\222\242\346\267\267\347\273\223\346\236\204"
        string_val: "\347\240\226\346\267\267\347\273\223\346\236\204"
        string_val: "\347\240\226\346\267\267\347\273\223\346\236\204"
        string_val: "\351\222\242\346\267\267\347\273\223\346\236\204"
        string_val: "\351\222\242\346\267\267\347\273\223\346\236\204"
        string_val: "\347\240\226\346\267\267\347\273\223\346\236\204"
        string_val: "\347\240\226\346\267\267\347\273\223\346\236\204"
        string_val: "\351\222\242\346\267\267\347\273\223\346\236\204"
        string_val: "\351\222\242\346\267\267\347\273\223\346\236\204"
        string_val: "\347\240\226\346\267\267\347\273\223\346\236\204"
        string_val: "\351\222\242\346\267\267\347\273\223\346\236\204"
        string_val: "\347\240\226\346\267\267\347\273\223\346\236\204"
        string_val: "\347\240\226\346\267\267\347\273\223\346\236\204"
        string_val: "\351\222\242\346\267\267\347\273\223\346\236\204"
        string_val: "\347\240\226\346\267\267\347\273\223\346\236\204"
        string_val: "\351\222\242\346\267\267\347\273\223\346\236\204"
        string_val: "\351\222\242\346\267\267\347\273\223\346\236\204"
        string_val: "\347\240\226\346\267\267\347\273\223\346\236\204"
        string_val: "\351\222\242\346\267\267\347\273\223\346\236\204"
        string_val: "\347\240\226\346\267\267\347\273\223\346\236\204"
      }
    }
  }
}
node {
  name: "Const_8"
  op: "Const"
  attr {
    key: "_output_shapes"
    value {
      list {
        shape {
          dim {
            size: 387
          }
        }
      }
    }
  }
  attr {
    key: "dtype"
    value {
      type: DT_STRING
    }
  }
  attr {
    key: "value"
    value {
      tensor {
        dtype: DT_STRING
        tensor_shape {
          dim {
            size: 387
          }
        }
        string_val: "\345\215\227"
        string_val: "\345\215\227"
        string_val: "\345\215\227"
        string_val: "\345\215\227"
        string_val: "\345\215\227\345\214\227"
        string_val: "\345\215\227"
        string_val: "\345\215\227\345\214\227"
        string_val: "\345\215\227"
        string_val: "\344\270\234\345\215\227\345\214\227"
        string_val: "\345\215\227"
        string_val: "\345\215\227"
        string_val: "\345\215\227"
        string_val: "\345\214\227"
        string_val: "\345\215\227"
        string_val: "\345\215\227"
        string_val: "\345\215\227"
        string_val: "\345\215\227"
        string_val: "\344\270\234"
        string_val: "\345\215\227"
        string_val: "\345\215\227"
        string_val: "\345\215\227"
        string_val: "\345\215\227"
        string_val: "\345\215\227"
        string_val: "\345\215\227"
        string_val: "\345\215\227"
        string_val: "\345\215\227"
        string_val: "\345\215\227"
        string_val: "\345\215\227"
        string_val: "\345\215\227"
        string_val: "\345\215\227"
        string_val: "\345\215\227"
        string_val: "\345\215\227"
        string_val: "\345\215\227\345\214\227"
        string_val: "\345\215\227"
        string_val: "\345\215\227"
        string_val: "\345\215\227"
        string_val: "\344\270\234\345\214\227"
        string_val: "\344\270\234\345\215\227"
        string_val: "\345\215\227"
        string_val: "\345\215\227"
        string_val: "\345\215\227"
        string_val: "\345\215\227"
        string_val: "\345\215\227"
        string_val: "\345\215\227"
        string_val: "\345\215\227"
        string_val: "\345\215\227"
        string_val: "\345\215\227\345\214\227"
        string_val: "\345\215\227"
        string_val: "\345\215\227"
        string_val: "\345\215\227\345\214\227"
        string_val: "\345\215\227"
        string_val: "\345\214\227\345\215\227"
        string_val: "\345\215\227"
        string_val: "\345\215\227"
        string_val: "\345\215\227"
        string_val: "\345\215\227"
        string_val: "\345\215\227"
        string_val: "\345\215\227"
        string_val: "\345\215\227"
        string_val: "\344\270\234\345\215\227"
        string_val: "\345\215\227"
        string_val: "\345\215\227"
        string_val: "\345\215\227"
        string_val: "\345\215\227"
        string_val: "\345\215\227"
        string_val: "\345\215\227"
        string_val: "\345\215\227"
        string_val: "\345\215\227"
        string_val: "\345\215\227"
        string_val: "\345\215\227\345\214\227"
        string_val: "\345\215\227\345\214\227"
        string_val: "\345\215\227"
        string_val: "\345\215\227"
        string_val: "\345\215\227"
        string_val: "\345\215\227"
        string_val: "\345\215\227\345\214\227"
        string_val: "\345\215\227\345\214\227"
        string_val: "\345\215\227\345\214\227"
        string_val: "\344\270\234\345\215\227"
        string_val: "\345\215\227\345\214\227"
        string_val: "\345\215\227"
        string_val: "\345\215\227"
        string_val: "\345\215\227\345\214\227"
        string_val: "\345\215\227\345\214\227"
        string_val: "\345\215\227"
        string_val: "\345\215\227"
        string_val: "\345\215\227"
        string_val: "\345\215\227\345\214\227"
        string_val: "\345\214\227"
        string_val: "\345\215\227"
        string_val: "\345\215\227"
        string_val: "\345\215\227\345\214\227"
        string_val: "\345\215\227"
        string_val: "\344\270\234"
        string_val: "\345\215\227"
        string_val: "\345\215\227"
        string_val: "\345\215\227"
        string_val: "\345\215\227\345\214\227"
        string_val: "\345\215\227"
        string_val: "\345\215\227"
        string_val: "\345\214\227"
        string_val: "\345\215\227"
        string_val: "\345\215\227"
        string_val: "\345\215\227\345\214\227"
        string_val: "\345\215\227"
        string_val: "\345\215\227"
        string_val: "\345\215\227"
        string_val: "\345\215\227\345\214\227"
        string_val: "\345\215\227\345\214\227"
        string_val: "\345\215\227\345\214\227"
        string_val: "\345\215\227"
        string_val: "\345\215\227"
        string_val: "\345\215\227"
        string_val: "\345\215\227"
        string_val: "\345\215\227"
        string_val: "\345\215\227"
        string_val: "\345\215\227"
        string_val: "\345\215\227"
        string_val: "\345\215\227\345\214\227"
        string_val: "\345\215\227"
        string_val: "\345\215\227"
        string_val: "\345\215\227"
        string_val: "\345\215\227"
        string_val: "\345\215\227\345\214\227"
        string_val: "\345\215\227"
        string_val: "\345\215\227\345\214\227"
        string_val: "\345\215\227"
        string_val: "\345\215\227"
        string_val: "\345\215\227"
        string_val: "\345\215\227"
        string_val: "\345\215\227"
        string_val: "\344\270\234\345\215\227"
        string_val: "\345\215\227"
        string_val: "\345\215\227"
        string_val: "\345\215\227"
        string_val: "\344\270\234"
        string_val: "\345\215\227"
        string_val: "\345\215\227"
        string_val: "\345\215\227"
        string_val: "\345\215\227"
        string_val: "\345\215\227"
        string_val: "\345\215\227"
        string_val: "\345\215\227\345\214\227"
        string_val: "\345\215\227"
        string_val: "\345\215\227"
        string_val: "\345\215\227"
        string_val: "\345\215\227"
        string_val: "\345\215\227"
        string_val: "\345\215\227"
        string_val: "\345\215\227"
        string_val: "\345\215\227\345\214\227"
        string_val: "\345\215\227"
        string_val: "\345\215\227\345\214\227"
        string_val: "\345\215\227"
        string_val: "\345\215\227"
        string_val: "\345\215\227"
        string_val: "\345\215\227"
        string_val: "\345\215\227"
        string_val: "\350\245\277\350\245\277\345\214\227"
        string_val: "\350\245\277"
        string_val: "\345\214\227"
        string_val: "\345\215\227"
        string_val: "\345\215\227"
        string_val: "\345\215\227"
        string_val: "\345\215\227"
        string_val: "\345\215\227"
        string_val: "\345\215\227\345\214\227"
        string_val: "\345\215\227"
        string_val: "\345\215\227"
        string_val: "\345\215\227"
        string_val: "\345\215\227"
        string_val: "\345\215\227"
        string_val: "\345\215\227"
        string_val: "\350\245\277\345\215\227"
        string_val: "\345\215\227"
        string_val: "\350\245\277"
        string_val: "\345\215\227"
        string_val: "\345\215\227"
        string_val: "\345\215\227"
        string_val: "\345\215\227"
        string_val: "\345\215\227"
        string_val: "\345\215\227"
        string_val: "\345\215\227"
        string_val: "\345\215\227"
        string_val: "\345\215\227"
        string_val: "\345\215\227"
        string_val: "\345\215\227"
        string_val: "\345\215\227"
        string_val: "\345\215\227"
        string_val: "\345\215\227"
        string_val: "\345\215\227"
        string_val: "\345\215\227"
        string_val: "\345\215\227"
        string_val: "\345\215\227"
        string_val: "\345\215\227"
        string_val: "\345\215\227"
        string_val: "\345\215\227"
        string_val: "\345\215\227\345\214\227"
        string_val: "\345\215\227"
        string_val: "\345\215\227"
        string_val: "\345\215\227\345\214\227"
        string_val: "\345\215\227"
        string_val: "\345\215\227"
        string_val: "\345\215\227\345\214\227"
        string_val: "\345\215\227"
        string_val: "\345\215\227\345\214\227"
        string_val: "\345\215\227"
        string_val: "\345\215\227\345\214\227"
        string_val: "\345\215\227\345\214\227"
        string_val: "\345\215\227"
        string_val: "\345\215\227"
        string_val: "\345\215\227"
        string_val: "\345\215\227\345\214\227"
        string_val: "\345\215\227\345\214\227"
        string_val: "\345\215\227"
        string_val: "\345\215\227"
        string_val: "\345\214\227"
        string_val: "\345\215\227\345\214\227"
        string_val: "\345\215\227"
        string_val: "\345\215\227\345\214\227"
        string_val: "\345\215\227"
        string_val: "\345\215\227\350\245\277"
        string_val: "\345\215\227"
        string_val: "\345\215\227"
        string_val: "\345\215\227\345\214\227"
        string_val: "\345\215\227"
        string_val: "\345\215\227"
        string_val: "\345\215\227"
        string_val: "\345\215\227"
        string_val: "\345\215\227"
        string_val: "\345\215\227"
        string_val: "\345\214\227"
        string_val: "\345\215\227"
        string_val: "\345\215\227"
        string_val: "\345\215\227"
        string_val: "\345\215\227"
        string_val: "\344\270\234\345\215\227"
        string_val: "\350\245\277\345\215\227"
        string_val: "\345\215\227"
        string_val: "\345\215\227"
        string_val: "\345\215\227\345\214\227"
        string_val: "\345\215\227"
        string_val: "\345\215\227\345\214\227"
        string_val: "\345\215\227"
        string_val: "\345\215\227\345\214\227"
        string_val: "\345\215\227\345\214\227"
        string_val: "\350\245\277\345\214\227"
        string_val: "\345\215\227\345\214\227"
        string_val: "\345\215\227"
        string_val: "\345\215\227"
        string_val: "\345\215\227"
        string_val: "\345\215\227\345\214\227"
        string_val: "\345\215\227"
        string_val: "\345\214\227\345\215\227"
        string_val: "\345\215\227"
        string_val: "\345\215\227\345\214\227"
        string_val: "\350\245\277\345\215\227"
        string_val: "\345\215\227"
        string_val: "\345\215\227"
        string_val: "\345\215\227"
        string_val: "\345\215\227"
        string_val: "\345\215\227\345\214\227"
        string_val: "\345\215\227"
        string_val: "\345\215\227"
        string_val: "\345\215\227"
        string_val: "\345\215\227"
        string_val: "\345\215\227\345\214\227"
        string_val: "\345\215\227"
        string_val: "\345\215\227"
        string_val: "\345\215\227"
        string_val: "\345\215\227"
        string_val: "\345\215\227"
        string_val: "\345\215\227"
        string_val: "\345\215\227"
        string_val: "\345\215\227"
        string_val: "\345\215\227"
        string_val: "\345\215\227"
        string_val: "\345\215\227"
        string_val: "\345\215\227"
        string_val: "\345\215\227"
        string_val: "\345\215\227"
        string_val: "\344\270\234\345\215\227\345\215\227"
        string_val: "\345\215\227"
        string_val: "\345\215\227"
        string_val: "\345\215\227\345\214\227"
        string_val: "\345\215\227\345\214\227"
        string_val: "\345\215\227"
        string_val: "\345\215\227"
        string_val: "\345\215\227"
        string_val: "\345\215\227"
        string_val: "\345\215\227\345\214\227"
        string_val: "\345\215\227"
        string_val: "\345\215\227"
        string_val: "\345\215\227\345\214\227"
        string_val: "\345\215\227"
        string_val: "\345\215\227"
        string_val: "\345\215\227"
        string_val: "\345\215\227"
        string_val: "\345\215\227"
        string_val: "\350\245\277\345\215\227"
        string_val: "\345\215\227"
        string_val: "\345\215\227"
        string_val: "\345\215\227"
        string_val: "\345\215\227"
        string_val: "\345\215\227"
        string_val: "\345\215\227\345\214\227"
        string_val: "\345\215\227\345\214\227"
        string_val: "\345\215\227"
        string_val: "\345\215\227"
        string_val: "\345\215\227"
        string_val: "\345\215\227"
        string_val: "\345\215\227"
        string_val: "\345\215\227\350\245\277\345\214\227"
        string_val: "\345\215\227\350\245\277\345\214\227"
        string_val: "\345\215\227"
        string_val: "\345\215\227"
        string_val: "\345\215\227"
        string_val: "\345\215\227"
        string_val: "\345\215\227"
        string_val: "\345\215\227"
        string_val: "\345\215\227"
        string_val: "\345\215\227"
        string_val: "\345\215\227"
        string_val: "\345\215\227\345\214\227"
        string_val: "\345\215\227"
        string_val: "\345\215\227\345\214\227"
        string_val: "\345\215\227"
        string_val: "\345\215\227"
        string_val: "\345\215\227"
        string_val: "\345\215\227"
        string_val: "\345\215\227"
        string_val: "\345\215\227"
        string_val: "\345\215\227\345\214\227"
        string_val: "\345\215\227"
        string_val: "\345\215\227"
        string_val: "\345\215\227"
        string_val: "\345\215\227"
        string_val: "\345\215\227"
        string_val: "\345\215\227"
        string_val: "\345\215\227"
        string_val: "\345\215\227"
        string_val: "\345\215\227"
        string_val: "\345\215\227"
        string_val: "\345\215\227\345\214\227"
        string_val: "\345\215\227"
        string_val: "\345\215\227"
        string_val: "\345\215\227"
        string_val: "\345\215\227\345\214\227"
        string_val: "\345\215\227\345\214\227"
        string_val: "\345\215\227"
        string_val: "\345\215\227"
        string_val: "\345\215\227"
        string_val: "\345\215\227"
        string_val: "\345\215\227"
        string_val: "\345\215\227"
        string_val: "\345\215\227"
        string_val: "\345\215\227"
        string_val: "\345\215\227"
        string_val: "\345\215\227"
        string_val: "\345\215\227"
        string_val: "\345\215\227"
        string_val: "\345\215\227"
        string_val: "\345\215\227"
        string_val: "\345\215\227"
        string_val: "\345\215\227"
        string_val: "\345\215\227"
        string_val: "\345\215\227"
        string_val: "\345\215\227"
        string_val: "\345\215\227"
        string_val: "\345\215\227\345\214\227"
        string_val: "\345\215\227"
        string_val: "\345\215\227"
        string_val: "\345\215\227"
        string_val: "\345\215\227"
        string_val: "\344\270\234\345\215\227\345\214\227"
        string_val: "\345\215\227"
        string_val: "\345\215\227"
        string_val: "\345\215\227"
        string_val: "\345\215\227"
        string_val: "\345\215\227"
        string_val: "\344\270\234\345\215\227\345\214\227"
        string_val: "\345\215\227"
        string_val: "\345\215\227"
        string_val: "\345\215\227\345\214\227"
        string_val: "\345\214\227"
        string_val: "\344\270\234\350\245\277"
        string_val: "\345\215\227"
      }
    }
  }
}
node {
  name: "Const_9"
  op: "Const"
  attr {
    key: "_output_shapes"
    value {
      list {
        shape {
          dim {
            size: 387
          }
        }
      }
    }
  }
  attr {
    key: "dtype"
    value {
      type: DT_STRING
    }
  }
  attr {
    key: "value"
    value {
      tensor {
        dtype: DT_STRING
        tensor_shape {
          dim {
            size: 387
          }
        }
        string_val: "\351\253\230"
        string_val: "\344\275\216"
        string_val: "\351\253\230"
        string_val: "\344\275\216"
        string_val: "\344\275\216"
        string_val: "\344\270\255"
        string_val: "\351\253\230"
        string_val: "\344\270\255"
        string_val: "\344\270\255"
        string_val: "\344\270\255"
        string_val: "\344\275\216"
        string_val: "\344\270\255"
        string_val: "\344\270\255"
        string_val: "\344\270\255"
        string_val: "\344\270\255"
        string_val: "\351\253\230"
        string_val: "\344\275\216"
        string_val: "\344\270\255"
        string_val: "\344\270\255"
        string_val: "\344\270\255"
        string_val: "\351\253\230"
        string_val: "\344\270\255"
        string_val: "\351\253\230"
        string_val: "\351\253\230"
        string_val: "\344\270\255"
        string_val: "\344\275\216"
        string_val: "\351\253\230"
        string_val: "\344\270\255"
        string_val: "\344\270\255"
        string_val: "\351\253\230"
        string_val: "\351\253\230"
        string_val: "\344\270\255"
        string_val: "\344\270\255"
        string_val: "\344\270\255"
        string_val: "\351\253\230"
        string_val: "\344\275\216"
        string_val: "\344\275\216"
        string_val: "\351\253\230"
        string_val: "\344\270\255"
        string_val: "\344\270\255"
        string_val: "\351\253\230"
        string_val: "\344\275\216"
        string_val: "\344\275\216"
        string_val: "\344\270\255"
        string_val: "\344\270\255"
        string_val: "\344\270\255"
        string_val: "\344\275\216"
        string_val: "\344\270\255"
        string_val: "\344\270\255"
        string_val: "\344\270\255"
        string_val: "\344\275\216"
        string_val: "\344\270\255"
        string_val: "\351\253\230"
        string_val: "\345\234\260"
        string_val: "\344\270\255"
        string_val: "\344\275\216"
        string_val: "\351\253\230"
        string_val: "\351\253\230"
        string_val: "\344\275\216"
        string_val: "\344\270\255"
        string_val: "\344\275\216"
        string_val: "\344\270\255"
        string_val: "\351\253\230"
        string_val: "\344\270\255"
        string_val: "\351\253\230"
        string_val: "\351\253\230"
        string_val: "\351\253\230"
        string_val: "\351\253\230"
        string_val: "\344\275\216"
        string_val: "\344\270\255"
        string_val: "\344\270\255"
        string_val: "\344\275\216"
        string_val: "\351\253\230"
        string_val: "\344\270\255"
        string_val: "\351\253\230"
        string_val: "\351\253\230"
        string_val: "\351\253\230"
        string_val: "\344\275\216"
        string_val: "\351\253\230"
        string_val: "\344\270\255"
        string_val: "\344\275\216"
        string_val: "\344\270\255"
        string_val: "\351\253\230"
        string_val: "\344\270\255"
        string_val: "\344\275\216"
        string_val: "\351\253\230"
        string_val: "\344\270\255"
        string_val: "\344\270\255"
        string_val: "\344\270\255"
        string_val: "\344\275\216"
        string_val: "\351\253\230"
        string_val: "\344\275\216"
        string_val: "\344\270\255"
        string_val: "\351\253\230"
        string_val: "\344\270\255"
        string_val: "\351\253\230"
        string_val: "\344\270\255"
        string_val: "\351\253\230"
        string_val: "\344\270\255"
        string_val: "\344\275\216"
        string_val: "\344\270\255"
        string_val: "\344\275\216"
        string_val: "\351\253\230"
        string_val: "\344\270\255"
        string_val: "\351\253\230"
        string_val: "\344\275\216"
        string_val: "\344\270\255"
        string_val: "\351\253\230"
        string_val: "\344\270\255"
        string_val: "\351\253\230"
        string_val: "\344\275\216"
        string_val: "\351\253\230"
        string_val: "\344\270\255"
        string_val: "\351\253\230"
        string_val: "\344\270\255"
        string_val: "\344\275\216"
        string_val: "\351\253\230"
        string_val: "\351\253\230"
        string_val: "\344\270\255"
        string_val: "\351\253\230"
        string_val: "\344\270\255"
        string_val: "\344\270\255"
        string_val: "\344\270\255"
        string_val: "\351\253\230"
        string_val: "\344\275\216"
        string_val: "\351\253\230"
        string_val: "\344\275\216"
        string_val: "\351\253\230"
        string_val: "\344\275\216"
        string_val: "\344\275\216"
        string_val: "\344\270\255"
        string_val: "\344\270\255"
        string_val: "\344\275\216"
        string_val: "\351\253\230"
        string_val: "\351\253\230"
        string_val: "\351\253\230"
        string_val: "\351\253\230"
        string_val: "\351\253\230"
        string_val: "\344\270\255"
        string_val: "\351\253\230"
        string_val: "\344\270\255"
        string_val: "\351\253\230"
        string_val: "\351\253\230"
        string_val: "\351\253\230"
        string_val: "\344\275\216"
        string_val: "\351\253\230"
        string_val: "\351\253\230"
        string_val: "\344\270\255"
        string_val: "\351\253\230"
        string_val: "\344\270\255"
        string_val: "\344\270\255"
        string_val: "\344\275\216"
        string_val: "\344\275\216"
        string_val: "\351\253\230"
        string_val: "\344\275\216"
        string_val: "\344\275\216"
        string_val: "\344\270\255"
        string_val: "\344\270\255"
        string_val: "\344\275\216"
        string_val: "\344\270\255"
        string_val: "\344\270\255"
        string_val: "\351\253\230"
        string_val: "\344\275\216"
        string_val: "\351\253\230"
        string_val: "\344\270\255"
        string_val: "\351\253\230"
        string_val: "\344\275\216"
        string_val: "\344\270\255"
        string_val: "\344\270\255"
        string_val: "\351\253\230"
        string_val: "\344\275\216"
        string_val: "\344\275\216"
        string_val: "\344\275\216"
        string_val: "\344\270\255"
        string_val: "\344\275\216"
        string_val: "\351\253\230"
        string_val: "\344\270\255"
        string_val: "\344\270\255"
        string_val: "\344\270\255"
        string_val: "\351\253\230"
        string_val: "\351\253\230"
        string_val: "\351\253\230"
        string_val: "\344\270\255"
        string_val: "\351\253\230"
        string_val: "\344\270\255"
        string_val: "\344\270\255"
        string_val: "\344\270\255"
        string_val: "\351\253\230"
        string_val: "\351\253\230"
        string_val: "\344\270\255"
        string_val: "\344\275\216"
        string_val: "\344\275\216"
        string_val: "\344\270\255"
        string_val: "\344\275\216"
        string_val: "\351\253\230"
        string_val: "\344\270\255"
        string_val: "\344\275\216"
        string_val: "\351\253\230"
        string_val: "\344\275\216"
        string_val: "\351\253\230"
        string_val: "\344\275\216"
        string_val: "\351\253\230"
        string_val: "\344\275\216"
        string_val: "\344\275\216"
        string_val: "\351\253\230"
        string_val: "\344\270\255"
        string_val: "\351\253\230"
        string_val: "\344\270\255"
        string_val: "\344\270\255"
        string_val: "\344\270\255"
        string_val: "\344\270\255"
        string_val: "\351\253\230"
        string_val: "\351\253\230"
        string_val: "\344\275\216"
        string_val: "\344\275\216"
        string_val: "\344\270\255"
        string_val: "\344\270\255"
        string_val: "\351\253\230"
        string_val: "\344\270\255"
        string_val: "\344\275\216"
        string_val: "\351\253\230"
        string_val: "\344\275\216"
        string_val: "\351\253\230"
        string_val: "\351\253\230"
        string_val: "\344\270\255"
        string_val: "\351\253\230"
        string_val: "\351\253\230"
        string_val: "\344\270\255"
        string_val: "\344\275\216"
        string_val: "\344\270\255"
        string_val: "\344\275\216"
        string_val: "\344\275\216"
        string_val: "\344\275\216"
        string_val: "\344\275\216"
        string_val: "\351\253\230"
        string_val: "\351\253\230"
        string_val: "\344\270\255"
        string_val: "\344\275\216"
        string_val: "\344\275\216"
        string_val: "\344\270\255"
        string_val: "\351\253\230"
        string_val: "\344\270\255"
        string_val: "\344\270\255"
        string_val: "\351\253\230"
        string_val: "\344\275\216"
        string_val: "\344\270\255"
        string_val: "\344\270\255"
        string_val: "\351\253\230"
        string_val: "\344\270\255"
        string_val: "\351\253\230"
        string_val: "\344\270\255"
        string_val: "\351\253\230"
        string_val: "\344\270\255"
        string_val: "\351\253\230"
        string_val: "\351\253\230"
        string_val: "\344\270\255"
        string_val: "\344\270\255"
        string_val: "\344\275\216"
        string_val: "\344\270\255"
        string_val: "\351\253\230"
        string_val: "\351\253\230"
        string_val: "\351\253\230"
        string_val: "\344\275\216"
        string_val: "\344\270\255"
        string_val: "\344\275\216"
        string_val: "\344\270\255"
        string_val: "\344\270\255"
        string_val: "\344\270\255"
        string_val: "\351\253\230"
        string_val: "\344\275\216"
        string_val: "\351\253\230"
        string_val: "\344\270\255"
        string_val: "\344\275\216"
        string_val: "\344\270\255"
        string_val: "\351\253\230"
        string_val: "\344\275\216"
        string_val: "\344\270\255"
        string_val: "\344\270\255"
        string_val: "\344\270\255"
        string_val: "\344\270\255"
        string_val: "\344\275\216"
        string_val: "\344\270\255"
        string_val: "\344\275\216"
        string_val: "\344\275\216"
        string_val: "\344\275\216"
        string_val: "\351\253\230"
        string_val: "\344\275\216"
        string_val: "\344\275\216"
        string_val: "\344\275\216"
        string_val: "\344\270\255"
        string_val: "\344\270\255"
        string_val: "\344\275\216"
        string_val: "\344\275\216"
        string_val: "\351\253\230"
        string_val: "\351\253\230"
        string_val: "\344\275\216"
        string_val: "\344\270\255"
        string_val: "\351\253\230"
        string_val: "\344\275\216"
        string_val: "\351\253\230"
        string_val: "\351\253\230"
        string_val: "\344\270\255"
        string_val: "\351\253\230"
        string_val: "\344\270\255"
        string_val: "\351\253\230"
        string_val: "\344\275\216"
        string_val: "\344\270\255"
        string_val: "\344\275\216"
        string_val: "\344\270\255"
        string_val: "\344\275\216"
        string_val: "\344\275\216"
        string_val: "\344\270\255"
        string_val: "\351\253\230"
        string_val: "\351\253\230"
        string_val: "\344\270\255"
        string_val: "\344\275\216"
        string_val: "\351\253\230"
        string_val: "\351\253\230"
        string_val: "\344\270\255"
        string_val: "\344\270\255"
        string_val: "\344\270\255"
        string_val: "\344\275\216"
        string_val: "\344\275\216"
        string_val: "\351\253\230"
        string_val: "\351\253\230"
        string_val: "\351\253\230"
        string_val: "\344\275\216"
        string_val: "\344\275\216"
        string_val: "\344\270\255"
        string_val: "\344\270\255"
        string_val: "\344\275\216"
        string_val: "\344\275\216"
        string_val: "\351\253\230"
        string_val: "\351\253\230"
        string_val: "\344\270\255"
        string_val: "\351\253\230"
        string_val: "\344\270\255"
        string_val: "\344\275\216"
        string_val: "\344\270\255"
        string_val: "\344\270\255"
        string_val: "\344\270\255"
        string_val: "\344\275\216"
        string_val: "\344\275\216"
        string_val: "\351\253\230"
        string_val: "\351\253\230"
        string_val: "\351\253\230"
        string_val: "\344\275\216"
        string_val: "\344\270\255"
        string_val: "\344\270\255"
        string_val: "\351\253\230"
        string_val: "\344\275\216"
        string_val: "\351\253\230"
        string_val: "\344\275\216"
        string_val: "\344\275\216"
        string_val: "\351\253\230"
        string_val: "\344\270\255"
        string_val: "\344\270\255"
        string_val: "\351\253\230"
        string_val: "\351\253\230"
        string_val: "\344\275\216"
        string_val: "\351\253\230"
        string_val: "\351\253\230"
        string_val: "\344\275\216"
        string_val: "\351\253\230"
        string_val: "\344\275\216"
        string_val: "\344\270\255"
        string_val: "\344\270\255"
        string_val: "\351\253\230"
        string_val: "\351\253\230"
        string_val: "\344\270\255"
        string_val: "\344\270\255"
        string_val: "\344\270\255"
        string_val: "\344\270\255"
        string_val: "\344\270\255"
        string_val: "\344\270\255"
        string_val: "\351\253\230"
        string_val: "\344\275\216"
        string_val: "\351\253\230"
        string_val: "\344\275\216"
        string_val: "\351\253\230"
        string_val: "\344\270\255"
        string_val: "\351\253\230"
        string_val: "\344\275\216"
        string_val: "\344\270\255"
        string_val: "\351\253\230"
        string_val: "\351\253\230"
        string_val: "\351\253\230"
      }
    }
  }
}
node {
  name: "Const_10"
  op: "Const"
  attr {
    key: "_output_shapes"
    value {
      list {
        shape {
          dim {
            size: 387
          }
        }
      }
    }
  }
  attr {
    key: "dtype"
    value {
      type: DT_INT64
    }
  }
  attr {
    key: "value"
    value {
      tensor {
        dtype: DT_INT64
        tensor_shape {
          dim {
            size: 387
          }
        }
        tensor_content: "…"
      }
    }
  }
}
node {
  name: "Const_11"
  op: "Const"
  attr {
    key: "_output_shapes"
    value {
      list {
        shape {
          dim {
            size: 387
          }
        }
      }
    }
  }
  attr {
    key: "dtype"
    value {
      type: DT_DOUBLE
    }
  }
  attr {
    key: "value"
    value {
      tensor {
        dtype: DT_DOUBLE
        tensor_shape {
          dim {
            size: 387
          }
        }
        tensor_content: "…"
      }
    }
  }
}
node {
  name: "Const_12"
  op: "Const"
  attr {
    key: "_output_shapes"
    value {
      list {
        shape {
          dim {
            size: 387
          }
        }
      }
    }
  }
  attr {
    key: "dtype"
    value {
      type: DT_DOUBLE
    }
  }
  attr {
    key: "value"
    value {
      tensor {
        dtype: DT_DOUBLE
        tensor_shape {
          dim {
            size: 387
          }
        }
        tensor_content: "…"
      }
    }
  }
}
node {
  name: "Const_13"
  op: "Const"
  attr {
    key: "_output_shapes"
    value {
      list {
        shape {
          dim {
            size: 387
          }
        }
      }
    }
  }
  attr {
    key: "dtype"
    value {
      type: DT_DOUBLE
    }
  }
  attr {
    key: "value"
    value {
      tensor {
        dtype: DT_DOUBLE
        tensor_shape {
          dim {
            size: 387
          }
        }
        tensor_content: "…"
      }
    }
  }
}
node {
  name: "Const_14"
  op: "Const"
  attr {
    key: "_output_shapes"
    value {
      list {
        shape {
          dim {
            size: 387
          }
        }
      }
    }
  }
  attr {
    key: "dtype"
    value {
      type: DT_DOUBLE
    }
  }
  attr {
    key: "value"
    value {
      tensor {
        dtype: DT_DOUBLE
        tensor_shape {
          dim {
            size: 387
          }
        }
        tensor_content: "…"
      }
    }
  }
}
node {
  name: "Const_15"
  op: "Const"
  attr {
    key: "_output_shapes"
    value {
      list {
        shape {
          dim {
            size: 387
          }
          dim {
            size: 1
          }
        }
      }
    }
  }
  attr {
    key: "dtype"
    value {
      type: DT_INT64
    }
  }
  attr {
    key: "value"
    value {
      tensor {
        dtype: DT_INT64
        tensor_shape {
          dim {
            size: 387
          }
          dim {
            size: 1
          }
        }
        tensor_content: "…"
      }
    }
  }
}
node {
  name: "global_step/IsVariableInitialized"
  op: "IsVariableInitialized"
  input: "global_step"
  attr {
    key: "_class"
    value {
      list {
        s: "loc:@global_step"
      }
    }
  }
  attr {
    key: "_output_shapes"
    value {
      list {
        shape {
        }
      }
    }
  }
  attr {
    key: "dtype"
    value {
      type: DT_INT64
    }
  }
}
node {
  name: "global_step/cond/Switch"
  op: "Switch"
  input: "global_step/IsVariableInitialized"
  input: "global_step/IsVariableInitialized"
  attr {
    key: "T"
    value {
      type: DT_BOOL
    }
  }
  attr {
    key: "_output_shapes"
    value {
      list {
        shape {
        }
        shape {
        }
      }
    }
  }
}
node {
  name: "global_step/cond/switch_t"
  op: "Identity"
  input: "global_step/cond/Switch:1"
  attr {
    key: "T"
    value {
      type: DT_BOOL
    }
  }
  attr {
    key: "_output_shapes"
    value {
      list {
        shape {
        }
      }
    }
  }
}
node {
  name: "global_step/cond/switch_f"
  op: "Identity"
  input: "global_step/cond/Switch"
  attr {
    key: "T"
    value {
      type: DT_BOOL
    }
  }
  attr {
    key: "_output_shapes"
    value {
      list {
        shape {
        }
      }
    }
  }
}
node {
  name: "global_step/cond/pred_id"
  op: "Identity"
  input: "global_step/IsVariableInitialized"
  attr {
    key: "T"
    value {
      type: DT_BOOL
    }
  }
  attr {
    key: "_output_shapes"
    value {
      list {
        shape {
        }
      }
    }
  }
}
node {
  name: "global_step/cond/read"
  op: "Identity"
  input: "global_step/cond/read/Switch:1"
  attr {
    key: "T"
    value {
      type: DT_INT64
    }
  }
  attr {
    key: "_output_shapes"
    value {
      list {
        shape {
        }
      }
    }
  }
}
node {
  name: "global_step/cond/read/Switch"
  op: "RefSwitch"
  input: "global_step"
  input: "global_step/cond/pred_id"
  attr {
    key: "T"
    value {
      type: DT_INT64
    }
  }
  attr {
    key: "_class"
    value {
      list {
        s: "loc:@global_step"
      }
    }
  }
  attr {
    key: "_output_shapes"
    value {
      list {
        shape {
        }
        shape {
        }
      }
    }
  }
}
node {
  name: "global_step/cond/Switch_1"
  op: "Switch"
  input: "global_step/Initializer/zeros"
  input: "global_step/cond/pred_id"
  attr {
    key: "T"
    value {
      type: DT_INT64
    }
  }
  attr {
    key: "_class"
    value {
      list {
        s: "loc:@global_step"
      }
    }
  }
  attr {
    key: "_output_shapes"
    value {
      list {
        shape {
        }
        shape {
        }
      }
    }
  }
}
node {
  name: "global_step/cond/Merge"
  op: "Merge"
  input: "global_step/cond/Switch_1"
  input: "global_step/cond/read"
  attr {
    key: "N"
    value {
      i: 2
    }
  }
  attr {
    key: "T"
    value {
      type: DT_INT64
    }
  }
  attr {
    key: "_output_shapes"
    value {
      list {
        shape {
        }
        shape {
        }
      }
    }
  }
}
node {
  name: "global_step/add/y"
  op: "Const"
  attr {
    key: "_output_shapes"
    value {
      list {
        shape {
        }
      }
    }
  }
  attr {
    key: "dtype"
    value {
      type: DT_INT64
    }
  }
  attr {
    key: "value"
    value {
      tensor {
        dtype: DT_INT64
        tensor_shape {
        }
        int64_val: 0
      }
    }
  }
}
node {
  name: "global_step/add"
  op: "Add"
  input: "global_step/cond/Merge"
  input: "global_step/add/y"
  attr {
    key: "T"
    value {
      type: DT_INT64
    }
  }
  attr {
    key: "_output_shapes"
    value {
      list {
        shape {
        }
      }
    }
  }
}
node {
  name: "dnn/input_from_feature_columns/input_layer/chaoxiang_indicator/ExpandDims/dim"
  op: "Const"
  attr {
    key: "_output_shapes"
    value {
      list {
        shape {
        }
      }
    }
  }
  attr {
    key: "dtype"
    value {
      type: DT_INT32
    }
  }
  attr {
    key: "value"
    value {
      tensor {
        dtype: DT_INT32
        tensor_shape {
        }
        int_val: -1
      }
    }
  }
}
node {
  name: "dnn/input_from_feature_columns/input_layer/chaoxiang_indicator/ExpandDims"
  op: "ExpandDims"
  input: "Const_8"
  input: "dnn/input_from_feature_columns/input_layer/chaoxiang_indicator/ExpandDims/dim"
  attr {
    key: "T"
    value {
      type: DT_STRING
    }
  }
  attr {
    key: "Tdim"
    value {
      type: DT_INT32
    }
  }
  attr {
    key: "_output_shapes"
    value {
      list {
        shape {
          dim {
            size: 387
          }
          dim {
            size: 1
          }
        }
      }
    }
  }
}
node {
  name: "dnn/input_from_feature_columns/input_layer/chaoxiang_indicator/to_sparse_input/ignore_value/x"
  op: "Const"
  attr {
    key: "_output_shapes"
    value {
      list {
        shape {
        }
      }
    }
  }
  attr {
    key: "dtype"
    value {
      type: DT_STRING
    }
  }
  attr {
    key: "value"
    value {
      tensor {
        dtype: DT_STRING
        tensor_shape {
        }
        string_val: ""
      }
    }
  }
}
node {
  name: "dnn/input_from_feature_columns/input_layer/chaoxiang_indicator/to_sparse_input/NotEqual"
  op: "NotEqual"
  input: "dnn/input_from_feature_columns/input_layer/chaoxiang_indicator/ExpandDims"
  input: "dnn/input_from_feature_columns/input_layer/chaoxiang_indicator/to_sparse_input/ignore_value/x"
  attr {
    key: "T"
    value {
      type: DT_STRING
    }
  }
  attr {
    key: "_output_shapes"
    value {
      list {
        shape {
          dim {
            size: 387
          }
          dim {
            size: 1
          }
        }
      }
    }
  }
}
node {
  name: "dnn/input_from_feature_columns/input_layer/chaoxiang_indicator/to_sparse_input/indices"
  op: "Where"
  input: "dnn/input_from_feature_columns/input_layer/chaoxiang_indicator/to_sparse_input/NotEqual"
  attr {
    key: "T"
    value {
      type: DT_BOOL
    }
  }
  attr {
    key: "_output_shapes"
    value {
      list {
        shape {
          dim {
            size: -1
          }
          dim {
            size: 2
          }
        }
      }
    }
  }
}
node {
  name: "dnn/input_from_feature_columns/input_layer/chaoxiang_indicator/to_sparse_input/values"
  op: "GatherNd"
  input: "dnn/input_from_feature_columns/input_layer/chaoxiang_indicator/ExpandDims"
  input: "dnn/input_from_feature_columns/input_layer/chaoxiang_indicator/to_sparse_input/indices"
  attr {
    key: "Tindices"
    value {
      type: DT_INT64
    }
  }
  attr {
    key: "Tparams"
    value {
      type: DT_STRING
    }
  }
  attr {
    key: "_output_shapes"
    value {
      list {
        shape {
          dim {
            size: -1
          }
        }
      }
    }
  }
}
node {
  name: "dnn/input_from_feature_columns/input_layer/chaoxiang_indicator/to_sparse_input/dense_shape"
  op: "Const"
  attr {
    key: "_output_shapes"
    value {
      list {
        shape {
          dim {
            size: 2
          }
        }
      }
    }
  }
  attr {
    key: "dtype"
    value {
      type: DT_INT64
    }
  }
  attr {
    key: "value"
    value {
      tensor {
        dtype: DT_INT64
        tensor_shape {
          dim {
            size: 2
          }
        }
        tensor_content: "\203\001\000\000\000\000\000\000\001\000\000\000\000\000\000\000"
      }
    }
  }
}
node {
  name: "dnn/input_from_feature_columns/input_layer/chaoxiang_indicator/chaoxiang_lookup/Const"
  op: "Const"
  attr {
    key: "_output_shapes"
    value {
      list {
        shape {
          dim {
            size: 9
          }
        }
      }
    }
  }
  attr {
    key: "dtype"
    value {
      type: DT_STRING
    }
  }
  attr {
    key: "value"
    value {
      tensor {
        dtype: DT_STRING
        tensor_shape {
          dim {
            size: 9
          }
        }
        string_val: "\344\270\234"
        string_val: "\345\215\227"
        string_val: "\350\245\277"
        string_val: "\345\214\227"
        string_val: "\344\270\234\345\215\227"
        string_val: "\344\270\234\345\214\227"
        string_val: "\350\245\277\345\215\227"
        string_val: "\350\245\277\345\214\227"
        string_val: "\346\232\202\346\227\240\346\225\260\346\215\256"
      }
    }
  }
}
node {
  name: "dnn/input_from_feature_columns/input_layer/chaoxiang_indicator/chaoxiang_lookup/Size"
  op: "Const"
  attr {
    key: "_output_shapes"
    value {
      list {
        shape {
        }
      }
    }
  }
  attr {
    key: "dtype"
    value {
      type: DT_INT32
    }
  }
  attr {
    key: "value"
    value {
      tensor {
        dtype: DT_INT32
        tensor_shape {
        }
        int_val: 9
      }
    }
  }
}
node {
  name: "dnn/input_from_feature_columns/input_layer/chaoxiang_indicator/chaoxiang_lookup/range/start"
  op: "Const"
  attr {
    key: "_output_shapes"
    value {
      list {
        shape {
        }
      }
    }
  }
  attr {
    key: "dtype"
    value {
      type: DT_INT32
    }
  }
  attr {
    key: "value"
    value {
      tensor {
        dtype: DT_INT32
        tensor_shape {
        }
        int_val: 0
      }
    }
  }
}
node {
  name: "dnn/input_from_feature_columns/input_layer/chaoxiang_indicator/chaoxiang_lookup/range/delta"
  op: "Const"
  attr {
    key: "_output_shapes"
    value {
      list {
        shape {
        }
      }
    }
  }
  attr {
    key: "dtype"
    value {
      type: DT_INT32
    }
  }
  attr {
    key: "value"
    value {
      tensor {
        dtype: DT_INT32
        tensor_shape {
        }
        int_val: 1
      }
    }
  }
}
node {
  name: "dnn/input_from_feature_columns/input_layer/chaoxiang_indicator/chaoxiang_lookup/range"
  op: "Range"
  input: "dnn/input_from_feature_columns/input_layer/chaoxiang_indicator/chaoxiang_lookup/range/start"
  input: "dnn/input_from_feature_columns/input_layer/chaoxiang_indicator/chaoxiang_lookup/Size"
  input: "dnn/input_from_feature_columns/input_layer/chaoxiang_indicator/chaoxiang_lookup/range/delta"
  attr {
    key: "Tidx"
    value {
      type: DT_INT32
    }
  }
  attr {
    key: "_output_shapes"
    value {
      list {
        shape {
          dim {
            size: 9
          }
        }
      }
    }
  }
}
node {
  name: "dnn/input_from_feature_columns/input_layer/chaoxiang_indicator/chaoxiang_lookup/Cast"
  op: "Cast"
  input: "dnn/input_from_feature_columns/input_layer/chaoxiang_indicator/chaoxiang_lookup/range"
  attr {
    key: "DstT"
    value {
      type: DT_INT64
    }
  }
  attr {
    key: "SrcT"
    value {
      type: DT_INT32
    }
  }
  attr {
    key: "Truncate"
    value {
      b: false
    }
  }
  attr {
    key: "_output_shapes"
    value {
      list {
        shape {
          dim {
            size: 9
          }
        }
      }
    }
  }
}
node {
  name: "dnn/input_from_feature_columns/input_layer/chaoxiang_indicator/chaoxiang_lookup/hash_table/Const"
  op: "Const"
  attr {
    key: "_output_shapes"
    value {
      list {
        shape {
        }
      }
    }
  }
  attr {
    key: "dtype"
    value {
      type: DT_INT64
    }
  }
  attr {
    key: "value"
    value {
      tensor {
        dtype: DT_INT64
        tensor_shape {
        }
        int64_val: -1
      }
    }
  }
}
node {
  name: "dnn/input_from_feature_columns/input_layer/chaoxiang_indicator/chaoxiang_lookup/hash_table/hash_table"
  op: "HashTableV2"
  attr {
    key: "_output_shapes"
    value {
      list {
        shape {
        }
      }
    }
  }
  attr {
    key: "container"
    value {
      s: ""
    }
  }
  attr {
    key: "key_dtype"
    value {
      type: DT_STRING
    }
  }
  attr {
    key: "shared_name"
    value {
      s: ""
    }
  }
  attr {
    key: "use_node_name_sharing"
    value {
      b: false
    }
  }
  attr {
    key: "value_dtype"
    value {
      type: DT_INT64
    }
  }
}
node {
  name: "dnn/input_from_feature_columns/input_layer/chaoxiang_indicator/chaoxiang_lookup/hash_table/table_init/LookupTableImportV2"
  op: "LookupTableImportV2"
  input: "dnn/input_from_feature_columns/input_layer/chaoxiang_indicator/chaoxiang_lookup/hash_table/hash_table"
  input: "dnn/input_from_feature_columns/input_layer/chaoxiang_indicator/chaoxiang_lookup/Const"
  input: "dnn/input_from_feature_columns/input_layer/chaoxiang_indicator/chaoxiang_lookup/Cast"
  attr {
    key: "Tin"
    value {
      type: DT_STRING
    }
  }
  attr {
    key: "Tout"
    value {
      type: DT_INT64
    }
  }
}
node {
  name: "dnn/input_from_feature_columns/input_layer/chaoxiang_indicator/hash_table_Lookup/LookupTableFindV2"
  op: "LookupTableFindV2"
  input: "dnn/input_from_feature_columns/input_layer/chaoxiang_indicator/chaoxiang_lookup/hash_table/hash_table"
  input: "dnn/input_from_feature_columns/input_layer/chaoxiang_indicator/to_sparse_input/values"
  input: "dnn/input_from_feature_columns/input_layer/chaoxiang_indicator/chaoxiang_lookup/hash_table/Const"
  attr {
    key: "Tin"
    value {
      type: DT_STRING
    }
  }
  attr {
    key: "Tout"
    value {
      type: DT_INT64
    }
  }
  attr {
    key: "_output_shapes"
    value {
      list {
        shape {
          dim {
            size: -1
          }
        }
      }
    }
  }
}
node {
  name: "dnn/input_from_feature_columns/input_layer/chaoxiang_indicator/SparseToDense/default_value"
  op: "Const"
  attr {
    key: "_output_shapes"
    value {
      list {
        shape {
        }
      }
    }
  }
  attr {
    key: "dtype"
    value {
      type: DT_INT64
    }
  }
  attr {
    key: "value"
    value {
      tensor {
        dtype: DT_INT64
        tensor_shape {
        }
        int64_val: -1
      }
    }
  }
}
node {
  name: "dnn/input_from_feature_columns/input_layer/chaoxiang_indicator/SparseToDense"
  op: "SparseToDense"
  input: "dnn/input_from_feature_columns/input_layer/chaoxiang_indicator/to_sparse_input/indices"
  input: "dnn/input_from_feature_columns/input_layer/chaoxiang_indicator/to_sparse_input/dense_shape"
  input: "dnn/input_from_feature_columns/input_layer/chaoxiang_indicator/hash_table_Lookup/LookupTableFindV2"
  input: "dnn/input_from_feature_columns/input_layer/chaoxiang_indicator/SparseToDense/default_value"
  attr {
    key: "T"
    value {
      type: DT_INT64
    }
  }
  attr {
    key: "Tindices"
    value {
      type: DT_INT64
    }
  }
  attr {
    key: "_output_shapes"
    value {
      list {
        shape {
          dim {
            size: 387
          }
          dim {
            size: 1
          }
        }
      }
    }
  }
  attr {
    key: "validate_indices"
    value {
      b: true
    }
  }
}
node {
  name: "dnn/input_from_feature_columns/input_layer/chaoxiang_indicator/one_hot/Const"
  op: "Const"
  attr {
    key: "_output_shapes"
    value {
      list {
        shape {
        }
      }
    }
  }
  attr {
    key: "dtype"
    value {
      type: DT_FLOAT
    }
  }
  attr {
    key: "value"
    value {
      tensor {
        dtype: DT_FLOAT
        tensor_shape {
        }
        float_val: 1.0
      }
    }
  }
}
node {
  name: "dnn/input_from_feature_columns/input_layer/chaoxiang_indicator/one_hot/Const_1"
  op: "Const"
  attr {
    key: "_output_shapes"
    value {
      list {
        shape {
        }
      }
    }
  }
  attr {
    key: "dtype"
    value {
      type: DT_FLOAT
    }
  }
  attr {
    key: "value"
    value {
      tensor {
        dtype: DT_FLOAT
        tensor_shape {
        }
        float_val: 0.0
      }
    }
  }
}
node {
  name: "dnn/input_from_feature_columns/input_layer/chaoxiang_indicator/one_hot/depth"
  op: "Const"
  attr {
    key: "_output_shapes"
    value {
      list {
        shape {
        }
      }
    }
  }
  attr {
    key: "dtype"
    value {
      type: DT_INT32
    }
  }
  attr {
    key: "value"
    value {
      tensor {
        dtype: DT_INT32
        tensor_shape {
        }
        int_val: 9
      }
    }
  }
}
node {
  name: "dnn/input_from_feature_columns/input_layer/chaoxiang_indicator/one_hot/on_value"
  op: "Const"
  attr {
    key: "_output_shapes"
    value {
      list {
        shape {
        }
      }
    }
  }
  attr {
    key: "dtype"
    value {
      type: DT_FLOAT
    }
  }
  attr {
    key: "value"
    value {
      tensor {
        dtype: DT_FLOAT
        tensor_shape {
        }
        float_val: 1.0
      }
    }
  }
}
node {
  name: "dnn/input_from_feature_columns/input_layer/chaoxiang_indicator/one_hot/off_value"
  op: "Const"
  attr {
    key: "_output_shapes"
    value {
      list {
        shape {
        }
      }
    }
  }
  attr {
    key: "dtype"
    value {
      type: DT_FLOAT
    }
  }
  attr {
    key: "value"
    value {
      tensor {
        dtype: DT_FLOAT
        tensor_shape {
        }
        float_val: 0.0
      }
    }
  }
}
node {
  name: "dnn/input_from_feature_columns/input_layer/chaoxiang_indicator/one_hot"
  op: "OneHot"
  input: "dnn/input_from_feature_columns/input_layer/chaoxiang_indicator/SparseToDense"
  input: "dnn/input_from_feature_columns/input_layer/chaoxiang_indicator/one_hot/depth"
  input: "dnn/input_from_feature_columns/input_layer/chaoxiang_indicator/one_hot/on_value"
  input: "dnn/input_from_feature_columns/input_layer/chaoxiang_indicator/one_hot/off_value"
  attr {
    key: "T"
    value {
      type: DT_FLOAT
    }
  }
  attr {
    key: "TI"
    value {
      type: DT_INT64
    }
  }
  attr {
    key: "_output_shapes"
    value {
      list {
        shape {
          dim {
            size: 387
          }
          dim {
            size: 1
          }
          dim {
            size: 9
          }
        }
      }
    }
  }
  attr {
    key: "axis"
    value {
      i: -1
    }
  }
}
node {
  name: "dnn/input_from_feature_columns/input_layer/chaoxiang_indicator/Sum/reduction_indices"
  op: "Const"
  attr {
    key: "_output_shapes"
    value {
      list {
        shape {
          dim {
            size: 1
          }
        }
      }
    }
  }
  attr {
    key: "dtype"
    value {
      type: DT_INT32
    }
  }
  attr {
    key: "value"
    value {
      tensor {
        dtype: DT_INT32
        tensor_shape {
          dim {
            size: 1
          }
        }
        int_val: -2
      }
    }
  }
}
node {
  name: "dnn/input_from_feature_columns/input_layer/chaoxiang_indicator/Sum"
  op: "Sum"
  input: "dnn/input_from_feature_columns/input_layer/chaoxiang_indicator/one_hot"
  input: "dnn/input_from_feature_columns/input_layer/chaoxiang_indicator/Sum/reduction_indices"
  attr {
    key: "T"
    value {
      type: DT_FLOAT
    }
  }
  attr {
    key: "Tidx"
    value {
      type: DT_INT32
    }
  }
  attr {
    key: "_output_shapes"
    value {
      list {
        shape {
          dim {
            size: 387
          }
          dim {
            size: 9
          }
        }
      }
    }
  }
  attr {
    key: "keep_dims"
    value {
      b: false
    }
  }
}
node {
  name: "dnn/input_from_feature_columns/input_layer/chaoxiang_indicator/Shape"
  op: "Const"
  attr {
    key: "_output_shapes"
    value {
      list {
        shape {
          dim {
            size: 2
          }
        }
      }
    }
  }
  attr {
    key: "dtype"
    value {
      type: DT_INT32
    }
  }
  attr {
    key: "value"
    value {
      tensor {
        dtype: DT_INT32
        tensor_shape {
          dim {
            size: 2
          }
        }
        tensor_content: "\203\001\000\000\t\000\000\000"
      }
    }
  }
}
node {
  name: "dnn/input_from_feature_columns/input_layer/chaoxiang_indicator/strided_slice/stack"
  op: "Const"
  attr {
    key: "_output_shapes"
    value {
      list {
        shape {
          dim {
            size: 1
          }
        }
      }
    }
  }
  attr {
    key: "dtype"
    value {
      type: DT_INT32
    }
  }
  attr {
    key: "value"
    value {
      tensor {
        dtype: DT_INT32
        tensor_shape {
          dim {
            size: 1
          }
        }
        int_val: 0
      }
    }
  }
}
node {
  name: "dnn/input_from_feature_columns/input_layer/chaoxiang_indicator/strided_slice/stack_1"
  op: "Const"
  attr {
    key: "_output_shapes"
    value {
      list {
        shape {
          dim {
            size: 1
          }
        }
      }
    }
  }
  attr {
    key: "dtype"
    value {
      type: DT_INT32
    }
  }
  attr {
    key: "value"
    value {
      tensor {
        dtype: DT_INT32
        tensor_shape {
          dim {
            size: 1
          }
        }
        int_val: 1
      }
    }
  }
}
node {
  name: "dnn/input_from_feature_columns/input_layer/chaoxiang_indicator/strided_slice/stack_2"
  op: "Const"
  attr {
    key: "_output_shapes"
    value {
      list {
        shape {
          dim {
            size: 1
          }
        }
      }
    }
  }
  attr {
    key: "dtype"
    value {
      type: DT_INT32
    }
  }
  attr {
    key: "value"
    value {
      tensor {
        dtype: DT_INT32
        tensor_shape {
          dim {
            size: 1
          }
        }
        int_val: 1
      }
    }
  }
}
node {
  name: "dnn/input_from_feature_columns/input_layer/chaoxiang_indicator/strided_slice"
  op: "StridedSlice"
  input: "dnn/input_from_feature_columns/input_layer/chaoxiang_indicator/Shape"
  input: "dnn/input_from_feature_columns/input_layer/chaoxiang_indicator/strided_slice/stack"
  input: "dnn/input_from_feature_columns/input_layer/chaoxiang_indicator/strided_slice/stack_1"
  input: "dnn/input_from_feature_columns/input_layer/chaoxiang_indicator/strided_slice/stack_2"
  attr {
    key: "Index"
    value {
      type: DT_INT32
    }
  }
  attr {
    key: "T"
    value {
      type: DT_INT32
    }
  }
  attr {
    key: "_output_shapes"
    value {
      list {
        shape {
        }
      }
    }
  }
  attr {
    key: "begin_mask"
    value {
      i: 0
    }
  }
  attr {
    key: "ellipsis_mask"
    value {
      i: 0
    }
  }
  attr {
    key: "end_mask"
    value {
      i: 0
    }
  }
  attr {
    key: "new_axis_mask"
    value {
      i: 0
    }
  }
  attr {
    key: "shrink_axis_mask"
    value {
      i: 1
    }
  }
}
node {
  name: "dnn/input_from_feature_columns/input_layer/chaoxiang_indicator/Reshape/shape/1"
  op: "Const"
  attr {
    key: "_output_shapes"
    value {
      list {
        shape {
        }
      }
    }
  }
  attr {
    key: "dtype"
    value {
      type: DT_INT32
    }
  }
  attr {
    key: "value"
    value {
      tensor {
        dtype: DT_INT32
        tensor_shape {
        }
        int_val: 9
      }
    }
  }
}
node {
  name: "dnn/input_from_feature_columns/input_layer/chaoxiang_indicator/Reshape/shape"
  op: "Pack"
  input: "dnn/input_from_feature_columns/input_layer/chaoxiang_indicator/strided_slice"
  input: "dnn/input_from_feature_columns/input_layer/chaoxiang_indicator/Reshape/shape/1"
  attr {
    key: "N"
    value {
      i: 2
    }
  }
  attr {
    key: "T"
    value {
      type: DT_INT32
    }
  }
  attr {
    key: "_output_shapes"
    value {
      list {
        shape {
          dim {
            size: 2
          }
        }
      }
    }
  }
  attr {
    key: "axis"
    value {
      i: 0
    }
  }
}
node {
  name: "dnn/input_from_feature_columns/input_layer/chaoxiang_indicator/Reshape"
  op: "Reshape"
  input: "dnn/input_from_feature_columns/input_layer/chaoxiang_indicator/Sum"
  input: "dnn/input_from_feature_columns/input_layer/chaoxiang_indicator/Reshape/shape"
  attr {
    key: "T"
    value {
      type: DT_FLOAT
    }
  }
  attr {
    key: "Tshape"
    value {
      type: DT_INT32
    }
  }
  attr {
    key: "_output_shapes"
    value {
      list {
        shape {
          dim {
            size: 387
          }
          dim {
            size: 9
          }
        }
      }
    }
  }
}
node {
  name: "dnn/input_from_feature_columns/input_layer/chu/ExpandDims/dim"
  op: "Const"
  attr {
    key: "_output_shapes"
    value {
      list {
        shape {
        }
      }
    }
  }
  attr {
    key: "dtype"
    value {
      type: DT_INT32
    }
  }
  attr {
    key: "value"
    value {
      tensor {
        dtype: DT_INT32
        tensor_shape {
        }
        int_val: -1
      }
    }
  }
}
node {
  name: "dnn/input_from_feature_columns/input_layer/chu/ExpandDims"
  op: "ExpandDims"
  input: "Const_5"
  input: "dnn/input_from_feature_columns/input_layer/chu/ExpandDims/dim"
  attr {
    key: "T"
    value {
      type: DT_DOUBLE
    }
  }
  attr {
    key: "Tdim"
    value {
      type: DT_INT32
    }
  }
  attr {
    key: "_output_shapes"
    value {
      list {
        shape {
          dim {
            size: 387
          }
          dim {
            size: 1
          }
        }
      }
    }
  }
}
node {
  name: "dnn/input_from_feature_columns/input_layer/chu/Cast"
  op: "Cast"
  input: "dnn/input_from_feature_columns/input_layer/chu/ExpandDims"
  attr {
    key: "DstT"
    value {
      type: DT_FLOAT
    }
  }
  attr {
    key: "SrcT"
    value {
      type: DT_DOUBLE
    }
  }
  attr {
    key: "Truncate"
    value {
      b: false
    }
  }
  attr {
    key: "_output_shapes"
    value {
      list {
        shape {
          dim {
            size: 387
          }
          dim {
            size: 1
          }
        }
      }
    }
  }
}
node {
  name: "dnn/input_from_feature_columns/input_layer/chu/Shape"
  op: "Const"
  attr {
    key: "_output_shapes"
    value {
      list {
        shape {
          dim {
            size: 2
          }
        }
      }
    }
  }
  attr {
    key: "dtype"
    value {
      type: DT_INT32
    }
  }
  attr {
    key: "value"
    value {
      tensor {
        dtype: DT_INT32
        tensor_shape {
          dim {
            size: 2
          }
        }
        tensor_content: "\203\001\000\000\001\000\000\000"
      }
    }
  }
}
node {
  name: "dnn/input_from_feature_columns/input_layer/chu/strided_slice/stack"
  op: "Const"
  attr {
    key: "_output_shapes"
    value {
      list {
        shape {
          dim {
            size: 1
          }
        }
      }
    }
  }
  attr {
    key: "dtype"
    value {
      type: DT_INT32
    }
  }
  attr {
    key: "value"
    value {
      tensor {
        dtype: DT_INT32
        tensor_shape {
          dim {
            size: 1
          }
        }
        int_val: 0
      }
    }
  }
}
node {
  name: "dnn/input_from_feature_columns/input_layer/chu/strided_slice/stack_1"
  op: "Const"
  attr {
    key: "_output_shapes"
    value {
      list {
        shape {
          dim {
            size: 1
          }
        }
      }
    }
  }
  attr {
    key: "dtype"
    value {
      type: DT_INT32
    }
  }
  attr {
    key: "value"
    value {
      tensor {
        dtype: DT_INT32
        tensor_shape {
          dim {
            size: 1
          }
        }
        int_val: 1
      }
    }
  }
}
node {
  name: "dnn/input_from_feature_columns/input_layer/chu/strided_slice/stack_2"
  op: "Const"
  attr {
    key: "_output_shapes"
    value {
      list {
        shape {
          dim {
            size: 1
          }
        }
      }
    }
  }
  attr {
    key: "dtype"
    value {
      type: DT_INT32
    }
  }
  attr {
    key: "value"
    value {
      tensor {
        dtype: DT_INT32
        tensor_shape {
          dim {
            size: 1
          }
        }
        int_val: 1
      }
    }
  }
}
node {
  name: "dnn/input_from_feature_columns/input_layer/chu/strided_slice"
  op: "StridedSlice"
  input: "dnn/input_from_feature_columns/input_layer/chu/Shape"
  input: "dnn/input_from_feature_columns/input_layer/chu/strided_slice/stack"
  input: "dnn/input_from_feature_columns/input_layer/chu/strided_slice/stack_1"
  input: "dnn/input_from_feature_columns/input_layer/chu/strided_slice/stack_2"
  attr {
    key: "Index"
    value {
      type: DT_INT32
    }
  }
  attr {
    key: "T"
    value {
      type: DT_INT32
    }
  }
  attr {
    key: "_output_shapes"
    value {
      list {
        shape {
        }
      }
    }
  }
  attr {
    key: "begin_mask"
    value {
      i: 0
    }
  }
  attr {
    key: "ellipsis_mask"
    value {
      i: 0
    }
  }
  attr {
    key: "end_mask"
    value {
      i: 0
    }
  }
  attr {
    key: "new_axis_mask"
    value {
      i: 0
    }
  }
  attr {
    key: "shrink_axis_mask"
    value {
      i: 1
    }
  }
}
node {
  name: "dnn/input_from_feature_columns/input_layer/chu/Reshape/shape/1"
  op: "Const"
  attr {
    key: "_output_shapes"
    value {
      list {
        shape {
        }
      }
    }
  }
  attr {
    key: "dtype"
    value {
      type: DT_INT32
    }
  }
  attr {
    key: "value"
    value {
      tensor {
        dtype: DT_INT32
        tensor_shape {
        }
        int_val: 1
      }
    }
  }
}
node {
  name: "dnn/input_from_feature_columns/input_layer/chu/Reshape/shape"
  op: "Pack"
  input: "dnn/input_from_feature_columns/input_layer/chu/strided_slice"
  input: "dnn/input_from_feature_columns/input_layer/chu/Reshape/shape/1"
  attr {
    key: "N"
    value {
      i: 2
    }
  }
  attr {
    key: "T"
    value {
      type: DT_INT32
    }
  }
  attr {
    key: "_output_shapes"
    value {
      list {
        shape {
          dim {
            size: 2
          }
        }
      }
    }
  }
  attr {
    key: "axis"
    value {
      i: 0
    }
  }
}
node {
  name: "dnn/input_from_feature_columns/input_layer/chu/Reshape"
  op: "Reshape"
  input: "dnn/input_from_feature_columns/input_layer/chu/Cast"
  input: "dnn/input_from_feature_columns/input_layer/chu/Reshape/shape"
  attr {
    key: "T"
    value {
      type: DT_FLOAT
    }
  }
  attr {
    key: "Tshape"
    value {
      type: DT_INT32
    }
  }
  attr {
    key: "_output_shapes"
    value {
      list {
        shape {
          dim {
            size: 387
          }
          dim {
            size: 1
          }
        }
      }
    }
  }
}
node {
  name: "dnn/input_from_feature_columns/input_layer/dianti_indicator/ExpandDims/dim"
  op: "Const"
  attr {
    key: "_output_shapes"
    value {
      list {
        shape {
        }
      }
    }
  }
  attr {
    key: "dtype"
    value {
      type: DT_INT32
    }
  }
  attr {
    key: "value"
    value {
      tensor {
        dtype: DT_INT32
        tensor_shape {
        }
        int_val: -1
      }
    }
  }
}
node {
  name: "dnn/input_from_feature_columns/input_layer/dianti_indicator/ExpandDims"
  op: "ExpandDims"
  input: "Const"
  input: "dnn/input_from_feature_columns/input_layer/dianti_indicator/ExpandDims/dim"
  attr {
    key: "T"
    value {
      type: DT_STRING
    }
  }
  attr {
    key: "Tdim"
    value {
      type: DT_INT32
    }
  }
  attr {
    key: "_output_shapes"
    value {
      list {
        shape {
          dim {
            size: 387
          }
          dim {
            size: 1
          }
        }
      }
    }
  }
}
node {
  name: "dnn/input_from_feature_columns/input_layer/dianti_indicator/to_sparse_input/ignore_value/x"
  op: "Const"
  attr {
    key: "_output_shapes"
    value {
      list {
        shape {
        }
      }
    }
  }
  attr {
    key: "dtype"
    value {
      type: DT_STRING
    }
  }
  attr {
    key: "value"
    value {
      tensor {
        dtype: DT_STRING
        tensor_shape {
        }
        string_val: ""
      }
    }
  }
}
node {
  name: "dnn/input_from_feature_columns/input_layer/dianti_indicator/to_sparse_input/NotEqual"
  op: "NotEqual"
  input: "dnn/input_from_feature_columns/input_layer/dianti_indicator/ExpandDims"
  input: "dnn/input_from_feature_columns/input_layer/dianti_indicator/to_sparse_input/ignore_value/x"
  attr {
    key: "T"
    value {
      type: DT_STRING
    }
  }
  attr {
    key: "_output_shapes"
    value {
      list {
        shape {
          dim {
            size: 387
          }
          dim {
            size: 1
          }
        }
      }
    }
  }
}
node {
  name: "dnn/input_from_feature_columns/input_layer/dianti_indicator/to_sparse_input/indices"
  op: "Where"
  input: "dnn/input_from_feature_columns/input_layer/dianti_indicator/to_sparse_input/NotEqual"
  attr {
    key: "T"
    value {
      type: DT_BOOL
    }
  }
  attr {
    key: "_output_shapes"
    value {
      list {
        shape {
          dim {
            size: -1
          }
          dim {
            size: 2
          }
        }
      }
    }
  }
}
node {
  name: "dnn/input_from_feature_columns/input_layer/dianti_indicator/to_sparse_input/values"
  op: "GatherNd"
  input: "dnn/input_from_feature_columns/input_layer/dianti_indicator/ExpandDims"
  input: "dnn/input_from_feature_columns/input_layer/dianti_indicator/to_sparse_input/indices"
  attr {
    key: "Tindices"
    value {
      type: DT_INT64
    }
  }
  attr {
    key: "Tparams"
    value {
      type: DT_STRING
    }
  }
  attr {
    key: "_output_shapes"
    value {
      list {
        shape {
          dim {
            size: -1
          }
        }
      }
    }
  }
}
node {
  name: "dnn/input_from_feature_columns/input_layer/dianti_indicator/to_sparse_input/dense_shape"
  op: "Const"
  attr {
    key: "_output_shapes"
    value {
      list {
        shape {
          dim {
            size: 2
          }
        }
      }
    }
  }
  attr {
    key: "dtype"
    value {
      type: DT_INT64
    }
  }
  attr {
    key: "value"
    value {
      tensor {
        dtype: DT_INT64
        tensor_shape {
          dim {
            size: 2
          }
        }
        tensor_content: "\203\001\000\000\000\000\000\000\001\000\000\000\000\000\000\000"
      }
    }
  }
}
node {
  name: "dnn/input_from_feature_columns/input_layer/dianti_indicator/dianti_lookup/Const"
  op: "Const"
  attr {
    key: "_output_shapes"
    value {
      list {
        shape {
          dim {
            size: 3
          }
        }
      }
    }
  }
  attr {
    key: "dtype"
    value {
      type: DT_STRING
    }
  }
  attr {
    key: "value"
    value {
      tensor {
        dtype: DT_STRING
        tensor_shape {
          dim {
            size: 3
          }
        }
        string_val: "\346\234\211"
        string_val: "\346\227\240"
        string_val: "\346\232\202\346\227\240\346\225\260\346\215\256"
      }
    }
  }
}
node {
  name: "dnn/input_from_feature_columns/input_layer/dianti_indicator/dianti_lookup/Size"
  op: "Const"
  attr {
    key: "_output_shapes"
    value {
      list {
        shape {
        }
      }
    }
  }
  attr {
    key: "dtype"
    value {
      type: DT_INT32
    }
  }
  attr {
    key: "value"
    value {
      tensor {
        dtype: DT_INT32
        tensor_shape {
        }
        int_val: 3
…
  name: "report_uninitialized_variables_1/boolean_mask/strided_slice_2/stack"
  op: "Const"
  device: "/device:CPU:0"
  attr {
    key: "_output_shapes"
    value {
      list {
        shape {
          dim {
            size: 1
          }
        }
      }
    }
  }
  attr {
    key: "dtype"
    value {
      type: DT_INT32
    }
  }
  attr {
    key: "value"
    value {
      tensor {
        dtype: DT_INT32
        tensor_shape {
          dim {
            size: 1
          }
        }
        int_val: 1
      }
    }
  }
}
node {
  name: "report_uninitialized_variables_1/boolean_mask/strided_slice_2/stack_1"
  op: "Const"
  device: "/device:CPU:0"
  attr {
    key: "_output_shapes"
    value {
      list {
        shape {
          dim {
            size: 1
          }
        }
      }
    }
  }
  attr {
    key: "dtype"
    value {
      type: DT_INT32
    }
  }
  attr {
    key: "value"
    value {
      tensor {
        dtype: DT_INT32
        tensor_shape {
          dim {
            size: 1
          }
        }
        int_val: 0
      }
    }
  }
}
node {
  name: "report_uninitialized_variables_1/boolean_mask/strided_slice_2/stack_2"
  op: "Const"
  device: "/device:CPU:0"
  attr {
    key: "_output_shapes"
    value {
      list {
        shape {
          dim {
            size: 1
          }
        }
      }
    }
  }
  attr {
    key: "dtype"
    value {
      type: DT_INT32
    }
  }
  attr {
    key: "value"
    value {
      tensor {
        dtype: DT_INT32
        tensor_shape {
          dim {
            size: 1
          }
        }
        int_val: 1
      }
    }
  }
}
node {
  name: "report_uninitialized_variables_1/boolean_mask/strided_slice_2"
  op: "StridedSlice"
  input: "report_uninitialized_variables_1/boolean_mask/Shape_2"
  input: "report_uninitialized_variables_1/boolean_mask/strided_slice_2/stack"
  input: "report_uninitialized_variables_1/boolean_mask/strided_slice_2/stack_1"
  input: "report_uninitialized_variables_1/boolean_mask/strided_slice_2/stack_2"
  device: "/device:CPU:0"
  attr {
    key: "Index"
    value {
      type: DT_INT32
    }
  }
  attr {
    key: "T"
    value {
      type: DT_INT32
    }
  }
  attr {
    key: "_output_shapes"
    value {
      list {
        shape {
          dim {
          }
        }
      }
    }
  }
  attr {
    key: "begin_mask"
    value {
      i: 0
    }
  }
  attr {
    key: "ellipsis_mask"
    value {
      i: 0
    }
  }
  attr {
    key: "end_mask"
    value {
      i: 1
    }
  }
  attr {
    key: "new_axis_mask"
    value {
      i: 0
    }
  }
  attr {
    key: "shrink_axis_mask"
    value {
      i: 0
    }
  }
}
node {
  name: "report_uninitialized_variables_1/boolean_mask/concat/values_1"
  op: "Pack"
  input: "report_uninitialized_variables_1/boolean_mask/Prod"
  device: "/device:CPU:0"
  attr {
    key: "N"
    value {
      i: 1
    }
  }
  attr {
    key: "T"
    value {
      type: DT_INT32
    }
  }
  attr {
    key: "_output_shapes"
    value {
      list {
        shape {
          dim {
            size: 1
          }
        }
      }
    }
  }
  attr {
    key: "axis"
    value {
      i: 0
    }
  }
}
node {
  name: "report_uninitialized_variables_1/boolean_mask/concat/axis"
  op: "Const"
  device: "/device:CPU:0"
  attr {
    key: "_output_shapes"
    value {
      list {
        shape {
        }
      }
    }
  }
  attr {
    key: "dtype"
    value {
      type: DT_INT32
    }
  }
  attr {
    key: "value"
    value {
      tensor {
        dtype: DT_INT32
        tensor_shape {
        }
        int_val: 0
      }
    }
  }
}
node {
  name: "report_uninitialized_variables_1/boolean_mask/concat"
  op: "ConcatV2"
  input: "report_uninitialized_variables_1/boolean_mask/strided_slice_1"
  input: "report_uninitialized_variables_1/boolean_mask/concat/values_1"
  input: "report_uninitialized_variables_1/boolean_mask/strided_slice_2"
  input: "report_uninitialized_variables_1/boolean_mask/concat/axis"
  device: "/device:CPU:0"
  attr {
    key: "N"
    value {
      i: 3
    }
  }
  attr {
    key: "T"
    value {
      type: DT_INT32
    }
  }
  attr {
    key: "Tidx"
    value {
      type: DT_INT32
    }
  }
  attr {
    key: "_output_shapes"
    value {
      list {
        shape {
          dim {
            size: 1
          }
        }
      }
    }
  }
}
node {
  name: "report_uninitialized_variables_1/boolean_mask/Reshape"
  op: "Reshape"
  input: "report_uninitialized_variables_1/Const"
  input: "report_uninitialized_variables_1/boolean_mask/concat"
  device: "/device:CPU:0"
  attr {
    key: "T"
    value {
      type: DT_STRING
    }
  }
  attr {
    key: "Tshape"
    value {
      type: DT_INT32
    }
  }
  attr {
    key: "_output_shapes"
    value {
      list {
        shape {
          dim {
            size: 30
          }
        }
      }
    }
  }
}
node {
  name: "report_uninitialized_variables_1/boolean_mask/Reshape_1/shape"
  op: "Const"
  device: "/device:CPU:0"
  attr {
    key: "_output_shapes"
    value {
      list {
        shape {
          dim {
            size: 1
          }
        }
      }
    }
  }
  attr {
    key: "dtype"
    value {
      type: DT_INT32
    }
  }
  attr {
    key: "value"
    value {
      tensor {
        dtype: DT_INT32
        tensor_shape {
          dim {
            size: 1
          }
        }
        int_val: -1
      }
    }
  }
}
node {
  name: "report_uninitialized_variables_1/boolean_mask/Reshape_1"
  op: "Reshape"
  input: "report_uninitialized_variables_1/LogicalNot"
  input: "report_uninitialized_variables_1/boolean_mask/Reshape_1/shape"
  device: "/device:CPU:0"
  attr {
    key: "T"
    value {
      type: DT_BOOL
    }
  }
  attr {
    key: "Tshape"
    value {
      type: DT_INT32
    }
  }
  attr {
    key: "_output_shapes"
    value {
      list {
        shape {
          dim {
            size: 30
          }
        }
      }
    }
  }
}
node {
  name: "report_uninitialized_variables_1/boolean_mask/Where"
  op: "Where"
  input: "report_uninitialized_variables_1/boolean_mask/Reshape_1"
  device: "/device:CPU:0"
  attr {
    key: "T"
    value {
      type: DT_BOOL
    }
  }
  attr {
    key: "_output_shapes"
    value {
      list {
        shape {
          dim {
            size: -1
          }
          dim {
            size: 1
          }
        }
      }
    }
  }
}
node {
  name: "report_uninitialized_variables_1/boolean_mask/Squeeze"
  op: "Squeeze"
  input: "report_uninitialized_variables_1/boolean_mask/Where"
  device: "/device:CPU:0"
  attr {
    key: "T"
    value {
      type: DT_INT64
    }
  }
  attr {
    key: "_output_shapes"
    value {
      list {
        shape {
          dim {
            size: -1
          }
        }
      }
    }
  }
  attr {
    key: "squeeze_dims"
    value {
      list {
        i: 1
      }
    }
  }
}
node {
  name: "report_uninitialized_variables_1/boolean_mask/GatherV2/axis"
  op: "Const"
  device: "/device:CPU:0"
  attr {
    key: "_output_shapes"
    value {
      list {
        shape {
        }
      }
    }
  }
  attr {
    key: "dtype"
    value {
      type: DT_INT32
    }
  }
  attr {
    key: "value"
    value {
      tensor {
        dtype: DT_INT32
        tensor_shape {
        }
        int_val: 0
      }
    }
  }
}
node {
  name: "report_uninitialized_variables_1/boolean_mask/GatherV2"
  op: "GatherV2"
  input: "report_uninitialized_variables_1/boolean_mask/Reshape"
  input: "report_uninitialized_variables_1/boolean_mask/Squeeze"
  input: "report_uninitialized_variables_1/boolean_mask/GatherV2/axis"
  device: "/device:CPU:0"
  attr {
    key: "Taxis"
    value {
      type: DT_INT32
    }
  }
  attr {
    key: "Tindices"
    value {
      type: DT_INT64
    }
  }
  attr {
    key: "Tparams"
    value {
      type: DT_STRING
    }
  }
  attr {
    key: "_output_shapes"
    value {
      list {
        shape {
          dim {
            size: -1
          }
        }
      }
    }
  }
  attr {
    key: "batch_dims"
    value {
      i: 0
    }
  }
}
node {
  name: "report_uninitialized_resources_1/Const"
  op: "Const"
  device: "/device:CPU:0"
  attr {
    key: "_output_shapes"
    value {
      list {
        shape {
          dim {
          }
        }
      }
    }
  }
  attr {
    key: "dtype"
    value {
      type: DT_STRING
    }
  }
  attr {
    key: "value"
    value {
      tensor {
        dtype: DT_STRING
        tensor_shape {
          dim {
          }
        }
      }
    }
  }
}
node {
  name: "concat_1/axis"
  op: "Const"
  attr {
    key: "_output_shapes"
    value {
      list {
        shape {
        }
      }
    }
  }
  attr {
    key: "dtype"
    value {
      type: DT_INT32
    }
  }
  attr {
    key: "value"
    value {
      tensor {
        dtype: DT_INT32
        tensor_shape {
        }
        int_val: 0
      }
    }
  }
}
node {
  name: "concat_1"
  op: "ConcatV2"
  input: "report_uninitialized_variables_1/boolean_mask/GatherV2"
  input: "report_uninitialized_resources_1/Const"
  input: "concat_1/axis"
  attr {
    key: "N"
    value {
      i: 2
    }
  }
  attr {
    key: "T"
    value {
      type: DT_STRING
    }
  }
  attr {
    key: "Tidx"
    value {
      type: DT_INT32
    }
  }
  attr {
    key: "_output_shapes"
    value {
      list {
        shape {
          dim {
            size: -1
          }
        }
      }
    }
  }
}
node {
  name: "init_2"
  op: "NoOp"
  input: "^dnn/regression_head/metrics/mean/count/Assign"
  input: "^dnn/regression_head/metrics/mean/total/Assign"
}
node {
  name: "init_all_tables"
  op: "NoOp"
  input: "^dnn/input_from_feature_columns/input_layer/chaoxiang_indicator/chaoxiang_lookup/hash_table/table_init/LookupTableImportV2"
  input: "^dnn/input_from_feature_columns/input_layer/dianti_indicator/dianti_lookup/hash_table/table_init/LookupTableImportV2"
  input: "^dnn/input_from_feature_columns/input_layer/height_indicator/height_lookup/hash_table/table_init/LookupTableImportV2"
  input: "^dnn/input_from_feature_columns/input_layer/jianzhujiegou_indicator/jianzhujiegou_lookup/hash_table/table_init/LookupTableImportV2"
  input: "^dnn/input_from_feature_columns/input_layer/jianzhuleixing_indicator/jianzhuleixing_lookup/hash_table/table_init/LookupTableImportV2"
  input: "^dnn/input_from_feature_columns/input_layer/zhuangxiuqingkuang_indicator/zhuangxiuqingkuang_lookup/hash_table/table_init/LookupTableImportV2"
}
node {
  name: "init_3"
  op: "NoOp"
}
node {
  name: "group_deps_1"
  op: "NoOp"
  input: "^init_2"
  input: "^init_3"
  input: "^init_all_tables"
}
node {
  name: "Merge/MergeSummary"
  op: "MergeSummary"
  input: "dnn/dnn/hiddenlayer_0_fraction_of_zero_values"
  input: "dnn/dnn/hiddenlayer_0_activation"
  input: "dnn/dnn/hiddenlayer_1_fraction_of_zero_values"
  input: "dnn/dnn/hiddenlayer_1_activation"
  input: "dnn/dnn/hiddenlayer_2_fraction_of_zero_values"
  input: "dnn/dnn/hiddenlayer_2_activation"
  input: "dnn/dnn/hiddenlayer_3_fraction_of_zero_values"
  input: "dnn/dnn/hiddenlayer_3_activation"
  input: "dnn/dnn/hiddenlayer_4_fraction_of_zero_values"
  input: "dnn/dnn/hiddenlayer_4_activation"
  input: "dnn/dnn/hiddenlayer_5_fraction_of_zero_values"
  input: "dnn/dnn/hiddenlayer_5_activation"
  input: "dnn/dnn/logits_fraction_of_zero_values"
  input: "dnn/dnn/logits_activation"
  input: "loss"
  attr {
    key: "N"
    value {
      i: 15
    }
  }
  attr {
    key: "_output_shapes"
    value {
      list {
        shape {
        }
      }
    }
  }
}
node {
  name: "save/filename/input"
  op: "Const"
  attr {
    key: "_output_shapes"
    value {
      list {
        shape {
        }
      }
    }
  }
  attr {
    key: "dtype"
    value {
      type: DT_STRING
    }
  }
  attr {
    key: "value"
    value {
      tensor {
        dtype: DT_STRING
        tensor_shape {
        }
        string_val: "model"
      }
    }
  }
}
node {
  name: "save/filename"
  op: "PlaceholderWithDefault"
  input: "save/filename/input"
  attr {
    key: "_output_shapes"
    value {
      list {
        shape {
        }
      }
    }
  }
  attr {
    key: "dtype"
    value {
      type: DT_STRING
    }
  }
  attr {
    key: "shape"
    value {
      shape {
      }
    }
  }
}
node {
  name: "save/Const"
  op: "PlaceholderWithDefault"
  input: "save/filename"
  attr {
    key: "_output_shapes"
    value {
      list {
        shape {
        }
      }
    }
  }
  attr {
    key: "dtype"
    value {
      type: DT_STRING
    }
  }
  attr {
    key: "shape"
    value {
      shape {
      }
    }
  }
}
node {
  name: "save/StringJoin/inputs_1"
  op: "Const"
  attr {
    key: "_output_shapes"
    value {
      list {
        shape {
        }
      }
    }
  }
  attr {
    key: "dtype"
    value {
      type: DT_STRING
    }
  }
  attr {
    key: "value"
    value {
      tensor {
        dtype: DT_STRING
        tensor_shape {
        }
        string_val: "_temp_1d024f4c148649f98787d91833799054/part"
      }
    }
  }
}
node {
  name: "save/StringJoin"
  op: "StringJoin"
  input: "save/Const"
  input: "save/StringJoin/inputs_1"
  attr {
    key: "N"
    value {
      i: 2
    }
  }
  attr {
    key: "_output_shapes"
    value {
      list {
        shape {
        }
      }
    }
  }
  attr {
    key: "separator"
    value {
      s: ""
    }
  }
}
node {
  name: "save/num_shards"
  op: "Const"
  attr {
    key: "_output_shapes"
    value {
      list {
        shape {
        }
      }
    }
  }
  attr {
    key: "dtype"
    value {
      type: DT_INT32
    }
  }
  attr {
    key: "value"
    value {
      tensor {
        dtype: DT_INT32
        tensor_shape {
        }
        int_val: 1
      }
    }
  }
}
node {
  name: "save/ShardedFilename/shard"
  op: "Const"
  device: "/device:CPU:0"
  attr {
    key: "_output_shapes"
    value {
      list {
        shape {
        }
      }
    }
  }
  attr {
    key: "dtype"
    value {
      type: DT_INT32
    }
  }
  attr {
    key: "value"
    value {
      tensor {
        dtype: DT_INT32
        tensor_shape {
        }
        int_val: 0
      }
    }
  }
}
node {
  name: "save/ShardedFilename"
  op: "ShardedFilename"
  input: "save/StringJoin"
  input: "save/ShardedFilename/shard"
  input: "save/num_shards"
  device: "/device:CPU:0"
  attr {
    key: "_output_shapes"
    value {
      list {
        shape {
        }
      }
    }
  }
}
node {
  name: "save/SaveV2/tensor_names"
  op: "Const"
  device: "/device:CPU:0"
  attr {
    key: "_output_shapes"
    value {
      list {
        shape {
          dim {
            size: 30
          }
        }
      }
    }
  }
  attr {
    key: "dtype"
    value {
      type: DT_STRING
    }
  }
  attr {
    key: "value"
    value {
      tensor {
        dtype: DT_STRING
        tensor_shape {
          dim {
            size: 30
          }
        }
        string_val: "dnn/hiddenlayer_0/biases"
        string_val: "dnn/hiddenlayer_0/biases/enlayer_0/biases/part_0/Adagrad"
        string_val: "dnn/hiddenlayer_0/weights"
        string_val: "dnn/hiddenlayer_0/weights/nlayer_0/weights/part_0/Adagrad"
        string_val: "dnn/hiddenlayer_1/biases"
        string_val: "dnn/hiddenlayer_1/biases/enlayer_1/biases/part_0/Adagrad"
        string_val: "dnn/hiddenlayer_1/weights"
        string_val: "dnn/hiddenlayer_1/weights/nlayer_1/weights/part_0/Adagrad"
        string_val: "dnn/hiddenlayer_2/biases"
        string_val: "dnn/hiddenlayer_2/biases/enlayer_2/biases/part_0/Adagrad"
        string_val: "dnn/hiddenlayer_2/weights"
        string_val: "dnn/hiddenlayer_2/weights/nlayer_2/weights/part_0/Adagrad"
        string_val: "dnn/hiddenlayer_3/biases"
        string_val: "dnn/hiddenlayer_3/biases/enlayer_3/biases/part_0/Adagrad"
        string_val: "dnn/hiddenlayer_3/weights"
        string_val: "dnn/hiddenlayer_3/weights/nlayer_3/weights/part_0/Adagrad"
        string_val: "dnn/hiddenlayer_4/biases"
        string_val: "dnn/hiddenlayer_4/biases/enlayer_4/biases/part_0/Adagrad"
        string_val: "dnn/hiddenlayer_4/weights"
        string_val: "dnn/hiddenlayer_4/weights/nlayer_4/weights/part_0/Adagrad"
        string_val: "dnn/hiddenlayer_5/biases"
        string_val: "dnn/hiddenlayer_5/biases/enlayer_5/biases/part_0/Adagrad"
        string_val: "dnn/hiddenlayer_5/weights"
        string_val: "dnn/hiddenlayer_5/weights/nlayer_5/weights/part_0/Adagrad"
        string_val: "dnn/logits/biases"
        string_val: "dnn/logits/biases/nn/logits/biases/part_0/Adagrad"
        string_val: "dnn/logits/weights"
        string_val: "dnn/logits/weights/n/logits/weights/part_0/Adagrad"
        string_val: "dnn/regression_head/dnn/learning_rate"
        string_val: "global_step"
      }
    }
  }
}
node {
  name: "save/SaveV2/shape_and_slices"
  op: "Const"
  device: "/device:CPU:0"
  attr {
    key: "_output_shapes"
    value {
      list {
        shape {
          dim {
            size: 30
          }
        }
      }
    }
  }
  attr {
    key: "dtype"
    value {
      type: DT_STRING
    }
  }
  attr {
    key: "value"
    value {
      tensor {
        dtype: DT_STRING
        tensor_shape {
          dim {
            size: 30
          }
        }
        string_val: "10 0,10"
        string_val: "10 0,10"
        string_val: "32 10 0,32:0,10"
        string_val: "32 10 0,32:0,10"
        string_val: "20 0,20"
        string_val: "20 0,20"
        string_val: "10 20 0,10:0,20"
        string_val: "10 20 0,10:0,20"
        string_val: "30 0,30"
        string_val: "30 0,30"
        string_val: "20 30 0,20:0,30"
        string_val: "20 30 0,20:0,30"
        string_val: "30 0,30"
        string_val: "30 0,30"
        string_val: "30 30 0,30:0,30"
        string_val: "30 30 0,30:0,30"
        string_val: "20 0,20"
        string_val: "20 0,20"
        string_val: "30 20 0,30:0,20"
        string_val: "30 20 0,30:0,20"
        string_val: "10 0,10"
        string_val: "10 0,10"
        string_val: "20 10 0,20:0,10"
        string_val: "20 10 0,20:0,10"
        string_val: "1 0,1"
        string_val: "1 0,1"
        string_val: "10 1 0,10:0,1"
        string_val: "10 1 0,10:0,1"
        string_val: ""
        string_val: ""
      }
    }
  }
}
node {
  name: "save/SaveV2"
  op: "SaveV2"
  input: "save/ShardedFilename"
  input: "save/SaveV2/tensor_names"
  input: "save/SaveV2/shape_and_slices"
  input: "dnn/hiddenlayer_0/biases/part_0/read"
  input: "dnn/regression_head/dnn/dnn/hiddenlayer_0/biases/part_0/Adagrad/read"
  input: "dnn/hiddenlayer_0/weights/part_0/read"
  input: "dnn/regression_head/dnn/dnn/hiddenlayer_0/weights/part_0/Adagrad/read"
  input: "dnn/hiddenlayer_1/biases/part_0/read"
  input: "dnn/regression_head/dnn/dnn/hiddenlayer_1/biases/part_0/Adagrad/read"
  input: "dnn/hiddenlayer_1/weights/part_0/read"
  input: "dnn/regression_head/dnn/dnn/hiddenlayer_1/weights/part_0/Adagrad/read"
  input: "dnn/hiddenlayer_2/biases/part_0/read"
  input: "dnn/regression_head/dnn/dnn/hiddenlayer_2/biases/part_0/Adagrad/read"
  input: "dnn/hiddenlayer_2/weights/part_0/read"
  input: "dnn/regression_head/dnn/dnn/hiddenlayer_2/weights/part_0/Adagrad/read"
  input: "dnn/hiddenlayer_3/biases/part_0/read"
  input: "dnn/regression_head/dnn/dnn/hiddenlayer_3/biases/part_0/Adagrad/read"
  input: "dnn/hiddenlayer_3/weights/part_0/read"
  input: "dnn/regression_head/dnn/dnn/hiddenlayer_3/weights/part_0/Adagrad/read"
  input: "dnn/hiddenlayer_4/biases/part_0/read"
  input: "dnn/regression_head/dnn/dnn/hiddenlayer_4/biases/part_0/Adagrad/read"
  input: "dnn/hiddenlayer_4/weights/part_0/read"
  input: "dnn/regression_head/dnn/dnn/hiddenlayer_4/weights/part_0/Adagrad/read"
  input: "dnn/hiddenlayer_5/biases/part_0/read"
  input: "dnn/regression_head/dnn/dnn/hiddenlayer_5/biases/part_0/Adagrad/read"
  input: "dnn/hiddenlayer_5/weights/part_0/read"
  input: "dnn/regression_head/dnn/dnn/hiddenlayer_5/weights/part_0/Adagrad/read"
  input: "dnn/logits/biases/part_0/read"
  input: "dnn/regression_head/dnn/dnn/logits/biases/part_0/Adagrad/read"
  input: "dnn/logits/weights/part_0/read"
  input: "dnn/regression_head/dnn/dnn/logits/weights/part_0/Adagrad/read"
  input: "dnn/regression_head/dnn/learning_rate"
  input: "global_step"
  device: "/device:CPU:0"
  attr {
    key: "dtypes"
    value {
      list {
        type: DT_FLOAT
        type: DT_FLOAT
        type: DT_FLOAT
        type: DT_FLOAT
        type: DT_FLOAT
        type: DT_FLOAT
        type: DT_FLOAT
        type: DT_FLOAT
        type: DT_FLOAT
        type: DT_FLOAT
        type: DT_FLOAT
        type: DT_FLOAT
        type: DT_FLOAT
        type: DT_FLOAT
        type: DT_FLOAT
        type: DT_FLOAT
        type: DT_FLOAT
        type: DT_FLOAT
        type: DT_FLOAT
        type: DT_FLOAT
        type: DT_FLOAT
        type: DT_FLOAT
        type: DT_FLOAT
        type: DT_FLOAT
        type: DT_FLOAT
        type: DT_FLOAT
        type: DT_FLOAT
        type: DT_FLOAT
        type: DT_FLOAT
        type: DT_INT64
      }
    }
  }
}
node {
  name: "save/control_dependency"
  op: "Identity"
  input: "save/ShardedFilename"
  input: "^save/SaveV2"
  device: "/device:CPU:0"
  attr {
    key: "T"
    value {
      type: DT_STRING
    }
  }
  attr {
    key: "_class"
    value {
      list {
        s: "loc:@save/ShardedFilename"
      }
    }
  }
  attr {
    key: "_output_shapes"
    value {
      list {
        shape {
        }
      }
    }
  }
}
node {
  name: "save/MergeV2Checkpoints/checkpoint_prefixes"
  op: "Pack"
  input: "save/ShardedFilename"
  input: "^save/control_dependency"
  device: "/device:CPU:0"
  attr {
    key: "N"
    value {
      i: 1
    }
  }
  attr {
    key: "T"
    value {
      type: DT_STRING
    }
  }
  attr {
    key: "_output_shapes"
    value {
      list {
        shape {
          dim {
            size: 1
          }
        }
      }
    }
  }
  attr {
    key: "axis"
    value {
      i: 0
    }
  }
}
node {
  name: "save/MergeV2Checkpoints"
  op: "MergeV2Checkpoints"
  input: "save/MergeV2Checkpoints/checkpoint_prefixes"
  input: "save/Const"
  device: "/device:CPU:0"
  attr {
    key: "delete_old_dirs"
    value {
      b: true
    }
  }
}
node {
  name: "save/Identity"
  op: "Identity"
  input: "save/Const"
  input: "^save/MergeV2Checkpoints"
  input: "^save/control_dependency"
  device: "/device:CPU:0"
  attr {
    key: "T"
    value {
      type: DT_STRING
    }
  }
  attr {
    key: "_output_shapes"
    value {
      list {
        shape {
        }
      }
    }
  }
}
node {
  name: "save/RestoreV2/tensor_names"
  op: "Const"
  device: "/device:CPU:0"
  attr {
    key: "_output_shapes"
    value {
      list {
        shape {
          dim {
            size: 30
          }
        }
      }
    }
  }
  attr {
    key: "dtype"
    value {
      type: DT_STRING
    }
  }
  attr {
    key: "value"
    value {
      tensor {
        dtype: DT_STRING
        tensor_shape {
          dim {
            size: 30
          }
        }
        string_val: "dnn/hiddenlayer_0/biases"
        string_val: "dnn/hiddenlayer_0/biases/enlayer_0/biases/part_0/Adagrad"
        string_val: "dnn/hiddenlayer_0/weights"
        string_val: "dnn/hiddenlayer_0/weights/nlayer_0/weights/part_0/Adagrad"
        string_val: "dnn/hiddenlayer_1/biases"
        string_val: "dnn/hiddenlayer_1/biases/enlayer_1/biases/part_0/Adagrad"
        string_val: "dnn/hiddenlayer_1/weights"
        string_val: "dnn/hiddenlayer_1/weights/nlayer_1/weights/part_0/Adagrad"
        string_val: "dnn/hiddenlayer_2/biases"
        string_val: "dnn/hiddenlayer_2/biases/enlayer_2/biases/part_0/Adagrad"
        string_val: "dnn/hiddenlayer_2/weights"
        string_val: "dnn/hiddenlayer_2/weights/nlayer_2/weights/part_0/Adagrad"
        string_val: "dnn/hiddenlayer_3/biases"
        string_val: "dnn/hiddenlayer_3/biases/enlayer_3/biases/part_0/Adagrad"
        string_val: "dnn/hiddenlayer_3/weights"
        string_val: "dnn/hiddenlayer_3/weights/nlayer_3/weights/part_0/Adagrad"
        string_val: "dnn/hiddenlayer_4/biases"
        string_val: "dnn/hiddenlayer_4/biases/enlayer_4/biases/part_0/Adagrad"
        string_val: "dnn/hiddenlayer_4/weights"
        string_val: "dnn/hiddenlayer_4/weights/nlayer_4/weights/part_0/Adagrad"
        string_val: "dnn/hiddenlayer_5/biases"
        string_val: "dnn/hiddenlayer_5/biases/enlayer_5/biases/part_0/Adagrad"
        string_val: "dnn/hiddenlayer_5/weights"
        string_val: "dnn/hiddenlayer_5/weights/nlayer_5/weights/part_0/Adagrad"
        string_val: "dnn/logits/biases"
        string_val: "dnn/logits/biases/nn/logits/biases/part_0/Adagrad"
        string_val: "dnn/logits/weights"
        string_val: "dnn/logits/weights/n/logits/weights/part_0/Adagrad"
        string_val: "dnn/regression_head/dnn/learning_rate"
        string_val: "global_step"
      }
    }
  }
}
node {
  name: "save/RestoreV2/shape_and_slices"
  op: "Const"
  device: "/device:CPU:0"
  attr {
    key: "_output_shapes"
    value {
      list {
        shape {
          dim {
            size: 30
          }
        }
      }
    }
  }
  attr {
    key: "dtype"
    value {
      type: DT_STRING
    }
  }
  attr {
    key: "value"
    value {
      tensor {
        dtype: DT_STRING
        tensor_shape {
          dim {
            size: 30
          }
        }
        string_val: "10 0,10"
        string_val: "10 0,10"
        string_val: "32 10 0,32:0,10"
        string_val: "32 10 0,32:0,10"
        string_val: "20 0,20"
        string_val: "20 0,20"
        string_val: "10 20 0,10:0,20"
        string_val: "10 20 0,10:0,20"
        string_val: "30 0,30"
        string_val: "30 0,30"
        string_val: "20 30 0,20:0,30"
        string_val: "20 30 0,20:0,30"
        string_val: "30 0,30"
        string_val: "30 0,30"
        string_val: "30 30 0,30:0,30"
        string_val: "30 30 0,30:0,30"
        string_val: "20 0,20"
        string_val: "20 0,20"
        string_val: "30 20 0,30:0,20"
        string_val: "30 20 0,30:0,20"
        string_val: "10 0,10"
        string_val: "10 0,10"
        string_val: "20 10 0,20:0,10"
        string_val: "20 10 0,20:0,10"
        string_val: "1 0,1"
        string_val: "1 0,1"
        string_val: "10 1 0,10:0,1"
        string_val: "10 1 0,10:0,1"
        string_val: ""
        string_val: ""
      }
    }
  }
}
node {
  name: "save/RestoreV2"
  op: "RestoreV2"
  input: "save/Const"
  input: "save/RestoreV2/tensor_names"
  input: "save/RestoreV2/shape_and_slices"
  device: "/device:CPU:0"
  attr {
    key: "_output_shapes"
    value {
      list {
        shape {
          dim {
            size: 10
          }
        }
        shape {
          dim {
            size: 10
          }
        }
        shape {
          dim {
            size: 32
          }
          dim {
            size: 10
          }
        }
        shape {
          dim {
            size: 32
          }
          dim {
            size: 10
          }
        }
        shape {
          dim {
            size: 20
          }
        }
        shape {
          dim {
            size: 20
          }
        }
        shape {
          dim {
            size: 10
          }
          dim {
            size: 20
          }
        }
        shape {
          dim {
            size: 10
          }
          dim {
            size: 20
          }
        }
        shape {
          dim {
            size: 30
          }
        }
        shape {
          dim {
            size: 30
          }
        }
        shape {
          dim {
            size: 20
          }
          dim {
            size: 30
          }
        }
        shape {
          dim {
            size: 20
          }
          dim {
            size: 30
          }
        }
        shape {
          dim {
            size: 30
          }
        }
        shape {
          dim {
            size: 30
          }
        }
        shape {
          dim {
            size: 30
          }
          dim {
            size: 30
          }
        }
        shape {
          dim {
            size: 30
          }
          dim {
            size: 30
          }
        }
        shape {
          dim {
            size: 20
          }
        }
        shape {
          dim {
            size: 20
          }
        }
        shape {
          dim {
            size: 30
          }
          dim {
            size: 20
          }
        }
        shape {
          dim {
            size: 30
          }
          dim {
            size: 20
          }
        }
        shape {
          dim {
            size: 10
          }
        }
        shape {
          dim {
            size: 10
          }
        }
        shape {
          dim {
            size: 20
          }
          dim {
            size: 10
          }
        }
        shape {
          dim {
            size: 20
          }
          dim {
            size: 10
          }
        }
        shape {
          dim {
            size: 1
          }
        }
        shape {
          dim {
            size: 1
          }
        }
        shape {
          dim {
            size: 10
          }
          dim {
            size: 1
          }
        }
        shape {
          dim {
            size: 10
          }
          dim {
            size: 1
          }
        }
        shape {
          unknown_rank: true
        }
        shape {
          unknown_rank: true
        }
      }
    }
  }
  attr {
    key: "dtypes"
    value {
      list {
        type: DT_FLOAT
        type: DT_FLOAT
        type: DT_FLOAT
        type: DT_FLOAT
        type: DT_FLOAT
        type: DT_FLOAT
        type: DT_FLOAT
        type: DT_FLOAT
        type: DT_FLOAT
        type: DT_FLOAT
        type: DT_FLOAT
        type: DT_FLOAT
        type: DT_FLOAT
        type: DT_FLOAT
        type: DT_FLOAT
        type: DT_FLOAT
        type: DT_FLOAT
        type: DT_FLOAT
        type: DT_FLOAT
        type: DT_FLOAT
        type: DT_FLOAT
        type: DT_FLOAT
        type: DT_FLOAT
        type: DT_FLOAT
        type: DT_FLOAT
        type: DT_FLOAT
        type: DT_FLOAT
        type: DT_FLOAT
        type: DT_FLOAT
        type: DT_INT64
      }
    }
  }
}
node {
  name: "save/Assign"
  op: "Assign"
  input: "dnn/hiddenlayer_0/biases/part_0"
  input: "save/RestoreV2"
  attr {
    key: "T"
    value {
      type: DT_FLOAT
    }
  }
  attr {
    key: "_class"
    value {
      list {
        s: "loc:@dnn/hiddenlayer_0/biases/part_0"
      }
    }
  }
  attr {
    key: "_output_shapes"
    value {
      list {
        shape {
          dim {
            size: 10
          }
        }
      }
    }
  }
  attr {
    key: "use_locking"
    value {
      b: true
    }
  }
  attr {
    key: "validate_shape"
    value {
      b: true
    }
  }
}
node {
  name: "save/Assign_1"
  op: "Assign"
  input: "dnn/regression_head/dnn/dnn/hiddenlayer_0/biases/part_0/Adagrad"
  input: "save/RestoreV2:1"
  attr {
    key: "T"
    value {
      type: DT_FLOAT
    }
  }
  attr {
    key: "_class"
    value {
      list {
        s: "loc:@dnn/hiddenlayer_0/biases/part_0"
      }
    }
  }
  attr {
    key: "_output_shapes"
    value {
      list {
        shape {
          dim {
            size: 10
          }
        }
      }
    }
  }
  attr {
    key: "use_locking"
    value {
      b: true
    }
  }
  attr {
    key: "validate_shape"
    value {
      b: true
    }
  }
}
node {
  name: "save/Assign_2"
  op: "Assign"
  input: "dnn/hiddenlayer_0/weights/part_0"
  input: "save/RestoreV2:2"
  attr {
    key: "T"
    value {
      type: DT_FLOAT
    }
  }
  attr {
    key: "_class"
    value {
      list {
        s: "loc:@dnn/hiddenlayer_0/weights/part_0"
      }
    }
  }
  attr {
    key: "_output_shapes"
    value {
      list {
        shape {
          dim {
            size: 32
          }
          dim {
            size: 10
          }
        }
      }
    }
  }
  attr {
    key: "use_locking"
    value {
      b: true
    }
  }
  attr {
    key: "validate_shape"
    value {
      b: true
    }
  }
}
node {
  name: "save/Assign_3"
  op: "Assign"
  input: "dnn/regression_head/dnn/dnn/hiddenlayer_0/weights/part_0/Adagrad"
  input: "save/RestoreV2:3"
  attr {
    key: "T"
    value {
      type: DT_FLOAT
    }
  }
  attr {
    key: "_class"
    value {
      list {
        s: "loc:@dnn/hiddenlayer_0/weights/part_0"
      }
    }
  }
  attr {
    key: "_output_shapes"
    value {
      list {
        shape {
          dim {
            size: 32
          }
          dim {
            size: 10
          }
        }
      }
    }
  }
  attr {
    key: "use_locking"
    value {
      b: true
    }
  }
  attr {
    key: "validate_shape"
    value {
      b: true
    }
  }
}
node {
  name: "save/Assign_4"
  op: "Assign"
  input: "dnn/hiddenlayer_1/biases/part_0"
  input: "save/RestoreV2:4"
  attr {
    key: "T"
    value {
      type: DT_FLOAT
    }
  }
  attr {
    key: "_class"
    value {
      list {
        s: "loc:@dnn/hiddenlayer_1/biases/part_0"
      }
    }
  }
  attr {
    key: "_output_shapes"
    value {
      list {
        shape {
          dim {
            size: 20
          }
        }
      }
    }
  }
  attr {
    key: "use_locking"
    value {
      b: true
    }
  }
  attr {
    key: "validate_shape"
    value {
      b: true
    }
  }
}
node {
  name: "save/Assign_5"
  op: "Assign"
  input: "dnn/regression_head/dnn/dnn/hiddenlayer_1/biases/part_0/Adagrad"
  input: "save/RestoreV2:5"
  attr {
    key: "T"
    value {
      type: DT_FLOAT
    }
  }
  attr {
    key: "_class"
    value {
      list {
        s: "loc:@dnn/hiddenlayer_1/biases/part_0"
      }
    }
  }
  attr {
    key: "_output_shapes"
    value {
      list {
        shape {
          dim {
            size: 20
          }
        }
      }
    }
  }
  attr {
    key: "use_locking"
    value {
      b: true
    }
  }
  attr {
    key: "validate_shape"
    value {
      b: true
    }
  }
}
node {
  name: "save/Assign_6"
  op: "Assign"
  input: "dnn/hiddenlayer_1/weights/part_0"
  input: "save/RestoreV2:6"
  attr {
    key: "T"
    value {
      type: DT_FLOAT
    }
  }
  attr {
    key: "_class"
    value {
      list {
        s: "loc:@dnn/hiddenlayer_1/weights/part_0"
      }
    }
  }
  attr {
    key: "_output_shapes"
    value {
      list {
        shape {
          dim {
            size: 10
          }
          dim {
            size: 20
          }
        }
      }
    }
  }
  attr {
    key: "use_locking"
    value {
      b: true
    }
  }
  attr {
    key: "validate_shape"
    value {
      b: true
    }
  }
}
node {
  name: "save/Assign_7"
  op: "Assign"
  input: "dnn/regression_head/dnn/dnn/hiddenlayer_1/weights/part_0/Adagrad"
  input: "save/RestoreV2:7"
  attr {
    key: "T"
    value {
      type: DT_FLOAT
    }
  }
  attr {
    key: "_class"
    value {
      list {
        s: "loc:@dnn/hiddenlayer_1/weights/part_0"
      }
    }
  }
  attr {
    key: "_output_shapes"
    value {
      list {
        shape {
          dim {
            size: 10
          }
          dim {
            size: 20
          }
        }
      }
    }
  }
  attr {
    key: "use_locking"
    value {
      b: true
    }
  }
  attr {
    key: "validate_shape"
    value {
      b: true
    }
  }
}
node {
  name: "save/Assign_8"
  op: "Assign"
  input: "dnn/hiddenlayer_2/biases/part_0"
  input: "save/RestoreV2:8"
  attr {
    key: "T"
    value {
      type: DT_FLOAT
    }
  }
  attr {
    key: "_class"
    value {
      list {
        s: "loc:@dnn/hiddenlayer_2/biases/part_0"
      }
    }
  }
  attr {
    key: "_output_shapes"
    value {
      list {
        shape {
          dim {
            size: 30
          }
        }
      }
    }
  }
  attr {
    key: "use_locking"
    value {
      b: true
    }
  }
  attr {
    key: "validate_shape"
    value {
      b: true
    }
  }
}
node {
  name: "save/Assign_9"
  op: "Assign"
  input: "dnn/regression_head/dnn/dnn/hiddenlayer_2/biases/part_0/Adagrad"
  input: "save/RestoreV2:9"
  attr {
    key: "T"
    value {
      type: DT_FLOAT
    }
  }
  attr {
    key: "_class"
    value {
      list {
        s: "loc:@dnn/hiddenlayer_2/biases/part_0"
      }
    }
  }
  attr {
    key: "_output_shapes"
    value {
      list {
        shape {
          dim {
            size: 30
          }
        }
      }
    }
  }
  attr {
    key: "use_locking"
    value {
      b: true
    }
  }
  attr {
    key: "validate_shape"
    value {
      b: true
    }
  }
}
node {
  name: "save/Assign_10"
  op: "Assign"
  input: "dnn/hiddenlayer_2/weights/part_0"
  input: "save/RestoreV2:10"
  attr {
    key: "T"
    value {
      type: DT_FLOAT
    }
  }
  attr {
    key: "_class"
    value {
      list {
        s: "loc:@dnn/hiddenlayer_2/weights/part_0"
      }
    }
  }
  attr {
    key: "_output_shapes"
    value {
      list {
        shape {
          dim {
            size: 20
          }
          dim {
            size: 30
          }
        }
      }
    }
  }
  attr {
    key: "use_locking"
    value {
      b: true
    }
  }
  attr {
    key: "validate_shape"
    value {
      b: true
    }
  }
}
node {
  name: "save/Assign_11"
  op: "Assign"
  input: "dnn/regression_head/dnn/dnn/hiddenlayer_2/weights/part_0/Adagrad"
  input: "save/RestoreV2:11"
  attr {
    key: "T"
    value {
      type: DT_FLOAT
    }
  }
  attr {
    key: "_class"
    value {
      list {
        s: "loc:@dnn/hiddenlayer_2/weights/part_0"
      }
    }
  }
  attr {
    key: "_output_shapes"
    value {
      list {
        shape {
          dim {
            size: 20
          }
          dim {
            size: 30
          }
        }
      }
    }
  }
  attr {
    key: "use_locking"
    value {
      b: true
    }
  }
  attr {
    key: "validate_shape"
    value {
      b: true
    }
  }
}
node {
  name: "save/Assign_12"
  op: "Assign"
  input: "dnn/hiddenlayer_3/biases/part_0"
  input: "save/RestoreV2:12"
  attr {
    key: "T"
    value {
      type: DT_FLOAT
    }
  }
  attr {
    key: "_class"
    value {
      list {
        s: "loc:@dnn/hiddenlayer_3/biases/part_0"
      }
    }
  }
  attr {
    key: "_output_shapes"
    value {
      list {
        shape {
          dim {
            size: 30
          }
        }
      }
    }
  }
  attr {
    key: "use_locking"
    value {
      b: true
    }
  }
  attr {
    key: "validate_shape"
    value {
      b: true
    }
  }
}
node {
  name: "save/Assign_13"
  op: "Assign"
  input: "dnn/regression_head/dnn/dnn/hiddenlayer_3/biases/part_0/Adagrad"
  input: "save/RestoreV2:13"
  attr {
    key: "T"
    value {
      type: DT_FLOAT
    }
  }
  attr {
    key: "_class"
    value {
      list {
        s: "loc:@dnn/hiddenlayer_3/biases/part_0"
      }
    }
  }
  attr {
    key: "_output_shapes"
    value {
      list {
        shape {
          dim {
            size: 30
          }
        }
      }
    }
  }
  attr {
    key: "use_locking"
    value {
      b: true
    }
  }
  attr {
    key: "validate_shape"
    value {
      b: true
    }
  }
}
node {
  name: "save/Assign_14"
  op: "Assign"
  input: "dnn/hiddenlayer_3/weights/part_0"
  input: "save/RestoreV2:14"
  attr {
    key: "T"
    value {
      type: DT_FLOAT
    }
  }
  attr {
    key: "_class"
    value {
      list {
        s: "loc:@dnn/hiddenlayer_3/weights/part_0"
      }
    }
  }
  attr {
    key: "_output_shapes"
    value {
      list {
        shape {
          dim {
            size: 30
          }
          dim {
            size: 30
          }
        }
      }
    }
  }
  attr {
    key: "use_locking"
    value {
      b: true
    }
  }
  attr {
    key: "validate_shape"
    value {
      b: true
    }
  }
}
node {
  name: "save/Assign_15"
  op: "Assign"
  input: "dnn/regression_head/dnn/dnn/hiddenlayer_3/weights/part_0/Adagrad"
  input: "save/RestoreV2:15"
  attr {
    key: "T"
    value {
      type: DT_FLOAT
    }
  }
  attr {
    key: "_class"
    value {
      list {
        s: "loc:@dnn/hiddenlayer_3/weights/part_0"
      }
    }
  }
  attr {
    key: "_output_shapes"
    value {
      list {
        shape {
          dim {
            size: 30
          }
          dim {
            size: 30
          }
        }
      }
    }
  }
  attr {
    key: "use_locking"
    value {
      b: true
    }
  }
  attr {
    key: "validate_shape"
    value {
      b: true
    }
  }
}
node {
  name: "save/Assign_16"
  op: "Assign"
  input: "dnn/hiddenlayer_4/biases/part_0"
  input: "save/RestoreV2:16"
  attr {
    key: "T"
    value {
      type: DT_FLOAT
    }
  }
  attr {
    key: "_class"
    value {
      list {
        s: "loc:@dnn/hiddenlayer_4/biases/part_0"
      }
    }
  }
  attr {
    key: "_output_shapes"
    value {
      list {
        shape {
          dim {
            size: 20
          }
        }
      }
    }
  }
  attr {
    key: "use_locking"
    value {
      b: true
    }
  }
  attr {
    key: "validate_shape"
    value {
      b: true
    }
  }
}
node {
  name: "save/Assign_17"
  op: "Assign"
  input: "dnn/regression_head/dnn/dnn/hiddenlayer_4/biases/part_0/Adagrad"
  input: "save/RestoreV2:17"
  attr {
    key: "T"
    value {
      type: DT_FLOAT
    }
  }
  attr {
    key: "_class"
    value {
      list {
        s: "loc:@dnn/hiddenlayer_4/biases/part_0"
      }
    }
  }
  attr {
    key: "_output_shapes"
    value {
      list {
        shape {
          dim {
            size: 20
          }
        }
      }
    }
  }
  attr {
    key: "use_locking"
    value {
      b: true
    }
  }
  attr {
    key: "validate_shape"
    value {
      b: true
    }
  }
}
node {
  name: "save/Assign_18"
  op: "Assign"
  input: "dnn/hiddenlayer_4/weights/part_0"
  input: "save/RestoreV2:18"
  attr {
    key: "T"
    value {
      type: DT_FLOAT
    }
  }
  attr {
    key: "_class"
    value {
      list {
        s: "loc:@dnn/hiddenlayer_4/weights/part_0"
      }
    }
  }
  attr {
    key: "_output_shapes"
    value {
      list {
        shape {
          dim {
            size: 30
          }
          dim {
            size: 20
          }
        }
      }
    }
  }
  attr {
    key: "use_locking"
    value {
      b: true
    }
  }
  attr {
    key: "validate_shape"
    value {
      b: true
    }
  }
}
node {
  name: "save/Assign_19"
  op: "Assign"
  input: "dnn/regression_head/dnn/dnn/hiddenlayer_4/weights/part_0/Adagrad"
  input: "save/RestoreV2:19"
  attr {
    key: "T"
    value {
      type: DT_FLOAT
    }
  }
  attr {
    key: "_class"
    value {
      list {
        s: "loc:@dnn/hiddenlayer_4/weights/part_0"
      }
    }
  }
  attr {
    key: "_output_shapes"
    value {
      list {
        shape {
          dim {
            size: 30
          }
          dim {
            size: 20
          }
        }
      }
    }
  }
  attr {
    key: "use_locking"
    value {
      b: true
    }
  }
  attr {
    key: "validate_shape"
    value {
      b: true
    }
  }
}
node {
  name: "save/Assign_20"
  op: "Assign"
  input: "dnn/hiddenlayer_5/biases/part_0"
  input: "save/RestoreV2:20"
  attr {
    key: "T"
    value {
      type: DT_FLOAT
    }
  }
  attr {
    key: "_class"
    value {
      list {
        s: "loc:@dnn/hiddenlayer_5/biases/part_0"
      }
    }
  }
  attr {
    key: "_output_shapes"
    value {
      list {
        shape {
          dim {
            size: 10
          }
        }
      }
    }
  }
  attr {
    key: "use_locking"
    value {
      b: true
    }
  }
  attr {
    key: "validate_shape"
    value {
      b: true
    }
  }
}
node {
  name: "save/Assign_21"
  op: "Assign"
  input: "dnn/regression_head/dnn/dnn/hiddenlayer_5/biases/part_0/Adagrad"
  input: "save/RestoreV2:21"
  attr {
    key: "T"
    value {
      type: DT_FLOAT
    }
  }
  attr {
    key: "_class"
    value {
      list {
        s: "loc:@dnn/hiddenlayer_5/biases/part_0"
      }
    }
  }
  attr {
    key: "_output_shapes"
    value {
      list {
        shape {
          dim {
            size: 10
          }
        }
      }
    }
  }
  attr {
    key: "use_locking"
    value {
      b: true
    }
  }
  attr {
    key: "validate_shape"
    value {
      b: true
    }
  }
}
node {
  name: "save/Assign_22"
  op: "Assign"
  input: "dnn/hiddenlayer_5/weights/part_0"
  input: "save/RestoreV2:22"
  attr {
    key: "T"
    value {
      type: DT_FLOAT
    }
  }
  attr {
    key: "_class"
    value {
      list {
        s: "loc:@dnn/hiddenlayer_5/weights/part_0"
      }
    }
  }
  attr {
    key: "_output_shapes"
    value {
      list {
        shape {
          dim {
            size: 20
          }
          dim {
            size: 10
          }
        }
      }
    }
  }
  attr {
    key: "use_locking"
    value {
      b: true
    }
  }
  attr {
    key: "validate_shape"
    value {
      b: true
    }
  }
}
node {
  name: "save/Assign_23"
  op: "Assign"
  input: "dnn/regression_head/dnn/dnn/hiddenlayer_5/weights/part_0/Adagrad"
  input: "save/RestoreV2:23"
  attr {
    key: "T"
    value {
      type: DT_FLOAT
    }
  }
  attr {
    key: "_class"
    value {
      list {
        s: "loc:@dnn/hiddenlayer_5/weights/part_0"
      }
    }
  }
  attr {
    key: "_output_shapes"
    value {
      list {
        shape {
          dim {
            size: 20
          }
          dim {
            size: 10
          }
        }
      }
    }
  }
  attr {
    key: "use_locking"
    value {
      b: true
    }
  }
  attr {
    key: "validate_shape"
    value {
      b: true
    }
  }
}
node {
  name: "save/Assign_24"
  op: "Assign"
  input: "dnn/logits/biases/part_0"
  input: "save/RestoreV2:24"
  attr {
    key: "T"
    value {
      type: DT_FLOAT
    }
  }
  attr {
    key: "_class"
    value {
      list {
        s: "loc:@dnn/logits/biases/part_0"
      }
    }
  }
  attr {
    key: "_output_shapes"
    value {
      list {
        shape {
          dim {
            size: 1
          }
        }
      }
    }
  }
  attr {
    key: "use_locking"
    value {
      b: true
    }
  }
  attr {
    key: "validate_shape"
    value {
      b: true
    }
  }
}
node {
  name: "save/Assign_25"
  op: "Assign"
  input: "dnn/regression_head/dnn/dnn/logits/biases/part_0/Adagrad"
  input: "save/RestoreV2:25"
  attr {
    key: "T"
    value {
      type: DT_FLOAT
    }
  }
  attr {
    key: "_class"
    value {
      list {
        s: "loc:@dnn/logits/biases/part_0"
      }
    }
  }
  attr {
    key: "_output_shapes"
    value {
      list {
        shape {
          dim {
            size: 1
          }
        }
      }
    }
  }
  attr {
    key: "use_locking"
    value {
      b: true
    }
  }
  attr {
    key: "validate_shape"
    value {
      b: true
    }
  }
}
node {
  name: "save/Assign_26"
  op: "Assign"
  input: "dnn/logits/weights/part_0"
  input: "save/RestoreV2:26"
  attr {
    key: "T"
    value {
      type: DT_FLOAT
    }
  }
  attr {
    key: "_class"
    value {
      list {
        s: "loc:@dnn/logits/weights/part_0"
      }
    }
  }
  attr {
    key: "_output_shapes"
    value {
      list {
        shape {
          dim {
            size: 10
          }
          dim {
            size: 1
          }
        }
      }
    }
  }
  attr {
    key: "use_locking"
    value {
      b: true
    }
  }
  attr {
    key: "validate_shape"
    value {
      b: true
    }
  }
}
node {
  name: "save/Assign_27"
  op: "Assign"
  input: "dnn/regression_head/dnn/dnn/logits/weights/part_0/Adagrad"
  input: "save/RestoreV2:27"
  attr {
    key: "T"
    value {
      type: DT_FLOAT
    }
  }
  attr {
    key: "_class"
    value {
      list {
        s: "loc:@dnn/logits/weights/part_0"
      }
    }
  }
  attr {
    key: "_output_shapes"
    value {
      list {
        shape {
          dim {
            size: 10
          }
          dim {
            size: 1
          }
        }
      }
    }
  }
  attr {
    key: "use_locking"
    value {
      b: true
    }
  }
  attr {
    key: "validate_shape"
    value {
      b: true
    }
  }
}
node {
  name: "save/Assign_28"
  op: "Assign"
  input: "dnn/regression_head/dnn/learning_rate"
  input: "save/RestoreV2:28"
  attr {
    key: "T"
    value {
      type: DT_FLOAT
    }
  }
  attr {
    key: "_class"
    value {
      list {
        s: "loc:@dnn/regression_head/dnn/learning_rate"
      }
    }
  }
  attr {
    key: "_output_shapes"
    value {
      list {
        shape {
        }
      }
    }
  }
  attr {
    key: "use_locking"
    value {
      b: true
    }
  }
  attr {
    key: "validate_shape"
    value {
      b: true
    }
  }
}
node {
  name: "save/Assign_29"
  op: "Assign"
  input: "global_step"
  input: "save/RestoreV2:29"
  attr {
    key: "T"
    value {
      type: DT_INT64
    }
  }
  attr {
    key: "_class"
    value {
      list {
        s: "loc:@global_step"
      }
    }
  }
  attr {
    key: "_output_shapes"
    value {
      list {
        shape {
        }
      }
    }
  }
  attr {
    key: "use_locking"
    value {
      b: true
    }
  }
  attr {
    key: "validate_shape"
    value {
      b: true
    }
  }
}
node {
  name: "save/restore_shard"
  op: "NoOp"
  input: "^save/Assign"
  input: "^save/Assign_1"
  input: "^save/Assign_10"
  input: "^save/Assign_11"
  input: "^save/Assign_12"
  input: "^save/Assign_13"
  input: "^save/Assign_14"
  input: "^save/Assign_15"
  input: "^save/Assign_16"
  input: "^save/Assign_17"
  input: "^save/Assign_18"
  input: "^save/Assign_19"
  input: "^save/Assign_2"
  input: "^save/Assign_20"
  input: "^save/Assign_21"
  input: "^save/Assign_22"
  input: "^save/Assign_23"
  input: "^save/Assign_24"
  input: "^save/Assign_25"
  input: "^save/Assign_26"
  input: "^save/Assign_27"
  input: "^save/Assign_28"
  input: "^save/Assign_29"
  input: "^save/Assign_3"
  input: "^save/Assign_4"
  input: "^save/Assign_5"
  input: "^save/Assign_6"
  input: "^save/Assign_7"
  input: "^save/Assign_8"
  input: "^save/Assign_9"
}
node {
  name: "save/restore_all"
  op: "NoOp"
  input: "^save/restore_shard"
}
versions {
  producer: 38
}
